retain/save/RETAIN.pt (torch_old, 883006 bytes, 13 tensors)

emb f4 [41, 128]
0.066253245 -0.08135766 0.06732955 -0.06793182 -0.062684216 -0.015920676 -0.03846779 -0.028211925
-0.034049522 0.048766807 0.02525136 0.07239709 -0.06789456 -0.06197412 0.027428241 0.014153633
-0.057808675 0.06277466 -0.085406914 -0.0628738 -0.054778762 -0.07358315 0.05657181 -0.04063145
0.005736488 -0.042470176 0.02263277 0.06501589 0.016877156 -0.015109757 -0.08628689 0.04214026
0.063373476 -0.07434869 -0.08086454 -0.060091842 0.009047783 -0.054760464 -0.022336043 0.07651357
-0.041734006 -0.051776912 0.056060504 0.03017802 -0.024816051 0.073222 0.049654767 0.07226417
-0.067655176 -0.041651767 0.05528613 -0.0071683256 -0.014575917 -0.0014206395 -0.042109523 0.068508126
-0.011891593 -0.087083034 -0.06610562 0.07877696 -0.045910634 0.027206836 0.06317478 -0.008795668
0.033585932 -0.085002534 0.07370786 0.024118008 -0.08883599 0.03912927 0.0307142 -0.02157032
-0.0018520863 -0.06529021 -0.060163092 -0.07563403 0.029230941 0.088491835 0.05735602 0.066581175
-0.063535325 -0.002937538 0.030196562 0.055298515 -0.036564756 -0.07011873 -0.013363682 0.023343908
0.016629087 0.04318938 0.0015272363 0.074257955 0.0221301 0.0070657823 -0.025761047 0.060866036
-0.035788134 -0.028004142 -0.015289741 -0.061193295 0.0049406425 -0.07216429 -0.062440135 0.08946778
0.057055164 -0.07074225 -0.01893545 -0.07344106 0.08661007 -0.060136396 0.07737526 -0.08666023
-0.028582346 0.00037168033 0.03717701 -0.082727246 0.027304843 0.037905052 -0.03852806 -0.029396812
0.057553582 0.061431106 -0.02568371 -0.013327831 -0.013325788 0.07150593 -0.023058271 0.023336325
-0.0020026912 -0.085694015 0.06299109 -0.020801893 -0.04830006 0.050039046 0.073809765 -0.070811965
0.020187482 0.08541321 0.050545275 0.05120402 -0.005643788 -0.062270194 -0.0018119204 0.023604179
0.06561569 0.036679942 -0.010508639 -0.030267071 -0.03785815 -0.078936234 -0.021496756 0.010344276
-0.011663804 0.019921307 -0.055286076 -0.02908505 0.06039847 -0.037171345 -0.07429262 0.044417404
0.017020542 -0.067618616 0.054930955 -0.083545946 -0.018998412 0.008301953 0.047106076 -0.06553787
0.057697907 0.049003344 0.054921694 -0.03706182 -0.027375124 0.007398219 -0.04905846 0.015497132
0.008268681 -0.029584626 -0.08369912 -0.019678663 -0.011664399 0.08773322 -0.07839901 -0.004355984
0.07240632 0.07258843 0.062431507 0.08559826 0.0612752 -0.08076925 -0.042968858 0.0037066112
-0.07736129 -0.051325507 0.048398048 0.0611114 -0.06535641 0.060983535 0.02206254 -0.077215694
0.03176622 -0.070845105 0.08233141 -0.05041269 0.022112729 -0.07863803 -0.060825646 -0.023816485
0.04881372 -0.037875365 -0.035687927 0.03110368 -0.0389526 -0.056288313 0.08383558 -0.017903194
-0.079777695 -0.02226137 0.012137475 0.03319248 -0.08379013 0.0031948918 0.025837053 -0.055569544
-0.023134861 -0.006726665 -0.078707546 0.05128656 0.08442607 -0.059447624 -0.045211572 -0.021473566
-0.062218603 0.0039909314 -0.018884948 0.07432732 0.087420575 0.025316793 0.02116619 -0.054326102
-0.01151765 0.054818973 -0.061909117 0.0026636135 -0.02822786 -0.05115251 0.062208176 0.0313174
0.029712139 0.032272384 -0.0025185274 0.061600115 0.08699044 0.06539532 0.051973514 0.027225792
00000000: c8af 873d d89e a6bd 13e4 893d d71f 8bbd
00000010: 9560 80bd 146c 82bc 6790 1dbd b21c e7bc
00000020: 8377 0bbd b4bf 473d f1db ce3c ed44 943d
00000030: 4e0c 8bbd 93d8 7dbd 31b1 e03c a4e4 673c
00000040: cac8 6cbd 0090 803d d2e9 aebd fbc3 80bd
00000050: b25f 60bd c3b2 96bd d8b7 673d 2a6d 26bd
00000060: 26f9 bb3b 35f5 2dbd 5c68 b93c 0d27 853d
00000070: f641 8a3c ea8e 77bc 2eb7 b0bd 449b 2c3d
00000080: f4c9 813d 2044 98bd 4f9c a5bd dd22 76bd
00000090: 273d 143c 824c 60bd 14fa b6bc 26b3 9c3d
000000a0: 47f1 2abd 0714 54bd b39f 653d e537 f73c
000000b0: 084b cbbc 6af5 953d cc62 4b3d 3dff 933d
000000c0: cc8e 8abd 0b9b 2abd b673 623d 46e4 eabb
000000d0: d4cf 6ebc c034 baba 097b 2cbd fd4d 8c3d
000000e0: f5d4 42bc 9758 b2bd 6262 87bd d155 a13d
000000f0: ca0c 3cbd dfe0 de3c c761 813d b51b 10bc
00000100: 6791 093d cf15 aebd 26f4 963d 2193 c53c
00000110: a5ef b5bd 0346 203d 599c fb3c 3db4 b0bc
00000120: b4c1 f2ba e0b6 85bd 936d 76bd 04e6 9abd
00000130: ba75 ef3c 353b b53d 25ee 6a3d b65b 883d
00000140: cf1e 82bd b683 40bb c85e f73c b280 623d
00000150: edc4 15bd 699a 8fbd 58f3 5abc b93b bf3c
00000160: b939 883c 59e7 303d 8c2d c83a 8e14 983d
00000170: 2f4a b53c 1488 e73b d508 d3bc aa4e 793d
00000180: 9496 12bd f168 e5bc d281 7abc d2a5 7abd
00000190: 1de5 a13b dfca 93bd 3ac1 7fbd e23a b73d
000001a0: adb2 693d 50e1 90bd 841e 9bbc 4468 96bd
000001b0: 9f60 b13d 9551 76bd ec76 9e3d eb7a b1bd
000001c0: 8625 eabc 17de c239 ec46 183d e76c a9bd
000001d0: 68ae df3c 5442 1b3d 99cf 1dbd 95d1 f0bc
000001e0: 4ebd 6b3d 2f9f 7b3d a566 d2bc fa5c 5abc
000001f0: 6854 5abc b371 923d b3e4 bcbc d22b bf3c
00000200: 953f 03bb 5880 afbd 7901 813d bb68 aabc
00000210: 49d6 45bd bef5 4c3d 9329 973d dd05 91bd
00000220: 3860 a53c 1fed ae3d 9008 4f3d 4ebb 513d
00000230: 86ef b8bb 080f 7fbd f67d edba 8d5d c13c
00000240: 8561 863d b53d 163d 6d2c 2cbc a6f2 f7bc
00000250: 2611 1bbd 52a9 a1bd f719 b0bc 0a7b 293c
00000260: 8a19 3fbc 0232 a33c a773 62bd c543 eebc
00000270: 6364 773d fb40 18bd bb26 98bd 06ef 353d
00000280: aa6e 8b3c a17b 8abd 48ff 603d 231a abbd
00000290: 8fa2 9bbc ea04 083c 4df2 403d b838 86bd
000002a0: a454 6c3d bbb7 483d 92f5 603d 23ce 17bd
000002b0: cc41 e0bc c26c f23b 86f1 48bd afe7 7d3c
000002c0: 5d79 073c 755b f2bc 726a abbd 2635 a1bc
000002d0: 091c 3fbc 79ad b33d a98f a0bd a4bc 8ebb
000002e0: c449 943d 3ea9 943d 2eb8 7f3d 244e af3d
000002f0: b4fb 7a3d 596a a5bd 1d00 30bd 9eea 723b
00000300: 996f 9ebd b23a 52bd 083d 463d f34f 7a3d
00000310: 95d9 85bd dfc9 793d 80bc b43c 4323 9ebd
00000320: 4c1d 023d 3d17 91bd 5f9d a83d 897d 4ebd
00000330: c125 b53c fa0c a1bd 5024 79bd ca1a c3bc
00000340: e5f0 473d 3323 1bbd 812d 12bd 25cd fe3c
00000350: c38c 1fbd 938e 66bd fdb1 ab3d b8a9 92bc
00000360: 7d62 a3bd 7a5d b6bc 43dc 463c d7f4 073d
00000370: 299a abbd 6461 513b 3aa8 d33c e49c 63bd
00000380: 5285 bdbc 5b6b dcbb 6c31 a1bd db11 523d
00000390: 93e7 ac3d 5a7f 73bd c52f 39bd 55e9 afbc
000003a0: efd8 7ebd 5cc6 823b 9bb4 9abc ec38 983d
000003b0: 8f09 b33d 2a65 cf3c b864 ad3c 0c85 5ebd
000003c0: 87b4 3cbc dc89 603d 6a94 7dbd 0590 2e3b
000003d0: 1d3e e7bc 4b85 51bd 00ce 7e3d ad46 003d
000003e0: df66 f33c 0c30 043d e10d 25bb 6750 7c3d
000003f0: 0b28 b23d fbed 853d 2ee2 543d a008 df3c

rnn_module.gru.weight_ih_l0 f4 [384, 128]
-0.07245568 0.0033887834 0.03609596 -0.066934615 -0.012898233 -0.028324088 -0.008838923 0.035418194
0.004948642 -0.002642381 -0.043627627 -0.03535264 0.052000538 -0.05419359 -0.060944576 -0.083586834
0.07239599 0.028770877 -0.074319415 0.06517613 0.009371114 0.020935785 -0.032191098 -0.06780954
0.0550899 -0.03394496 -0.005343434 -0.044991642 0.065135375 0.06821087 0.026194382 0.019549008
0.07269947 -0.03293847 0.073895365 0.031041123 0.048707407 0.07554772 0.066256 0.009880078
-0.08500091 -0.05926334 0.051125195 0.05027364 -0.070457116 0.0013018711 -0.067479454 0.04975845
0.0605547 0.08729234 -0.045966793 -0.0669408 -0.0470371 0.028889742 -0.072467595 -0.033223767
0.062324822 -0.07096003 0.024632314 0.064343706 0.013522944 0.016178407 0.05261844 0.016740916
-0.03446192 0.0092292195 0.012304497 0.056564037 0.08575429 0.047388077 -0.0057525807 0.015387663
0.061187025 -0.033076886 -0.008054371 -0.062138382 0.02352224 0.013096695 0.031461045 -0.038539123
-0.016853971 -0.030019237 0.0004770961 -0.032598976 0.021614285 0.037532233 -0.04780952 0.079420924
0.06273456 0.07971939 0.05026741 0.04478406 -0.08778475 -0.008158551 0.059388757 0.039772805
-0.042447694 -0.03462358 0.023282252 0.022930887 0.06723709 -0.050433714 -0.027901746 0.08504738
-0.08441307 0.06364483 0.07009924 -0.0835551 -0.03712274 0.04633762 0.019809145 -0.032333482
0.061078366 -0.051541388 0.030460853 0.07492934 0.018790226 -0.07897374 0.07814224 0.08025812
-0.009329273 -0.07330237 0.073513925 -0.06776148 -0.05787019 0.014217076 0.058374945 -0.057468913
-0.037150364 -0.03574488 0.015392491 0.07341789 0.024216907 -0.06666016 0.051035605 0.031192105
-0.049643822 0.080063835 -0.061584476 0.07369306 -0.049455076 0.06002541 -0.002163832 -0.04032664
0.063118085 -0.014951417 0.02171526 -0.038195565 -0.034335848 -0.025047062 -0.008580806 0.079728976
-0.046942793 -0.07979365 0.025733644 0.020504395 0.0070587937 0.052982785 -0.08502354 -0.06909106
-0.0058705136 -0.058343094 0.001549045 0.0018448114 0.07128071 -0.07929004 -0.07697302 -0.0182448
0.0041914354 0.03636311 0.04130088 -0.01812007 0.08766164 0.086807534 -0.05891977 0.04014586
-0.043607444 -0.05451621 0.021251805 -0.0872896 0.07418077 0.010591886 -0.07830461 -0.008926792
-0.06534327 -0.087133355 -0.014417751 -0.030596279 0.061825212 -0.03654368 0.0845436 0.046464503
-0.05479337 0.0050739297 0.045173906 -0.019783031 -0.026298199 0.07865002 0.010228785 0.066319
0.075662464 0.043739717 0.06126442 0.063848086 -0.021581417 0.08701257 -0.041351218 -0.053921785
0.061466362 -0.06762366 -0.040106993 -0.048739802 0.0049599037 0.061389845 0.007198169 -0.018611675
-0.062291954 -0.07892134 -0.057384763 -0.031422935 -0.013934407 0.08284906 0.07241649 -0.059029832
-0.07392562 -0.019208126 0.029650325 0.048217207 0.012710028 -0.011398342 0.027632283 -0.060594242
0.04058796 0.028053561 -0.06578991 -0.03234954 -0.046137318 0.046300814 -0.024108501 0.010443984
0.056381285 -0.041498564 -0.017085187 -0.07237682 0.071932346 0.062919 -0.087119736 -0.022205047
0.06458916 0.074353606 -0.08227101 0.031301834 0.07267959 0.013764686 0.08694872 -0.03828005
00000000: a563 94bd 5a16 5e3b 5bd9 133d 0415 89bd
00000010: 1c53 53bc eb07 e8bc 21d1 10bc ab12 113d
00000020: 3828 a23b cc2b 2dbb e2b2 32bd eecd 10bd
00000030: 84fe 543d 19fa 5dbd 05a1 79bd 932f abbd
00000040: 5944 943d e7b0 eb3c c734 98bd 107b 853d
00000050: 4d89 193c 8681 ab3c d0da 03bd badf 8abd
00000060: f2a5 613d df09 0bbd f917 afbb 2849 38bd
00000070: b265 853d 24b2 8b3d 9a95 d63c 3e25 a03c
00000080: 76e3 943d 7dea 06bd 7456 973d f449 fe3c
00000090: 6b81 473d c3b8 9a3d 3ab1 873d 0de0 213c
000000a0: f514 aebd 1ebe 72bd a768 513d bbeb 4d3d
000000b0: d24b 90bd 8ca3 aa3a ab32 8abd 84cf 4b3d
000000c0: 3508 783d 54c6 b23d ad47 3cbd 4218 89bd
000000d0: f9a9 40bd 2eaa ec3c e469 94bd a515 08bd
000000e0: 5048 7f3d 7e53 91bd b5c9 c93c a2c6 833d
000000f0: 578f 5d3c 9488 843c 6f86 573d 3f24 893c
00000100: f127 0dbd 2736 173c cd98 493c b1af 673d
00000110: f29f af3d 001a 423d 2580 bcbb 891c 7c3c
00000120: 3f9f 7a3d a17b 07bd 7bf6 03bc d184 7ebd
00000130: b6b1 c03c 8593 563c 4cdd 003d 33db 1dbd
00000140: 5711 8abc e7ea f5bc c122 fa39 8186 05bd
00000150: 7110 b13c 66bb 193d ead3 43bd 70a7 a23d
00000160: fa7a 803d eb43 a33d 33e5 4d3d 7e6f 373d
00000170: 7ec8 b3bd 71ab 05bc a041 733d cfe8 223d
00000180: a2dd 2dbd 74d1 0dbd 6cba be3c 8ed9 bb3c
00000190: 99b3 893d 9593 4ebd 3492 e4bc 522d ae3d
000001a0: c2e0 acbd 3858 823d 3190 8f3d f01e abbd
000001b0: 040e 18bd 84cc 3d3d ca46 a23c 1d70 04bd
000001c0: 4f2d 7a3d 101d 53bd 0a89 f93c 8e74 993d
000001d0: f6ed 993c fcbc a1bd 0a09 a03d 5f5e a43d
000001e0: cfd9 18bc 8e1f 96bd 788e 963d 88c6 8abd
000001f0: 4b09 6dbd bdee 683c 911a 6f3d 8664 6bbd
00000200: fb2a 18bd 3969 12bd c930 7c3c 1e5c 963d
00000210: 8962 c63c 1f85 88bd b60a 513d 9686 ff3c
00000220: 5257 4bbd 82f8 a33d 0140 7cbd 63ec 963d
00000230: 6891 4abd 34dd 753d 14cf 0dbb 8c2d 25bd
00000240: 0e44 813d caf6 74bc 33e4 b13c f472 1cbd
00000250: bfa3 0cbd 7f2f cdbc 8296 0cbc f248 a33d
00000260: 1647 40bd da6a a3bd 5dcf d23c d5f8 a73c
00000270: 744d e73b 7a04 593d d220 aebd 9d7f 8dbd
00000280: 705d c0bb 2bf9 6ebd 5309 cb3a 99cd f13a
00000290: 9ffb 913d d162 a2bd 08a4 9dbd 1e76 95bc
000002a0: 4f58 893b 7cf1 143d 1d2b 293d 8b70 94bc
000002b0: f287 b33d 26c8 b13d db55 71bd fc6f 243d
000002c0: b89d 32bd 644c 5fbd 4418 ae3c e4c4 b2bd
000002d0: 16ec 973d 9789 2d3c 2b5e a0bd ae41 12bc
000002e0: b1d2 85bd f972 b2bd 6e38 6cbc 0ca5 fabc
000002f0: 6f3c 7d3d d3ae 15bd 3225 ad3d 9051 3e3d
00000300: 036f 60bd 3543 a63b 4608 393d 0610 a2bc
00000310: 526f d7bc 4313 a13d a296 273c 42d2 873d
00000320: ecf4 9a3d 6b28 333d 67f0 7a3d c9c2 823d
00000330: 83cb b0bc a533 b23d e55f 29bd 17dd 5cbd
00000340: 27c4 7b3d 467e 8abd 3b47 24bd 63a3 47bd
00000350: b086 a23b eb73 7b3d 9ede eb3b 8377 98bc
00000360: d925 7fbd 83a1 a1bd 490c 6bbd 56b5 00bd
00000370: 244d 64bc c5ac a93d 194f 943d 44c9 71bd
00000380: 5166 97bd 5c5a 9dbc 3de5 f23c 687f 453d
00000390: b93d 503c 1dc0 3abc 195d e23c ab31 78bd
000003a0: 903f 263d 95d0 e53c dcbc 86bd f480 04bd
000003b0: 7cfa 3cbd eca5 3d3d 317f c5bc 3e1d 2b3c
000003c0: 10f0 663d 66fa 29bd 3cf6 8bbc 4c3a 94bd
000003d0: 4451 933d addb 803d d56b b2bd 5ce7 b5bc
000003e0: 5247 843d b446 983d b47d a8bd 5a36 003d
000003f0: 09d9 943d 4785 613c 2c12 b23d 8bcb 1cbd

rnn_module.gru.weight_hh_l0 f4 [384, 128]
0.0014063878 0.058763225 0.07628081 0.068113446 -0.054533623 -0.036508337 -0.040764034 0.045486655
-0.0049338257 0.08525995 0.062996335 -0.034278337 -0.0022142956 -0.018236842 -0.041278344 -0.01604596
0.053400945 -0.028336743 0.029357025 -0.03727596 -0.010195902 0.037677884 0.021128448 0.013165995
0.05121665 -0.041038886 -0.065761164 -0.07598926 -0.08433794 0.02673176 0.020762175 0.056001727
0.068942055 0.029055282 0.01182596 -0.029840454 0.06967932 0.07796679 0.017887508 0.0654845
-0.05667487 -0.01862483 0.0058606137 0.013154751 -0.074596494 -0.038098656 0.013437502 0.026730128
-0.044089105 0.008015139 -0.02017375 -0.0054620155 -0.024593052 -0.013858073 -0.07708951 0.05757181
-0.074877836 -0.063796654 -0.07584154 -0.078319915 -0.081763975 0.040532406 -0.06691912 -0.024522472
0.01058601 0.013520354 0.031621374 -0.080031656 -0.037638877 -0.0016471134 -0.053908903 -0.055038307
0.048686028 -0.074715175 -0.011668864 0.0532895 0.0382889 0.021899223 0.08377942 -0.03713246
-0.034146417 -0.049109794 0.052049767 -0.014477148 0.08090924 0.02378052 0.051131148 0.03955809
-0.03477388 -0.005791652 -0.03783619 -0.03343697 0.03502248 -0.043758363 0.06501733 0.07986278
-0.0861198 0.019504894 0.07290872 -0.062416777 -0.04835319 0.06368656 0.0090197455 0.052712835
0.0047855703 0.033836033 0.060626708 -0.030851062 0.07382911 -0.070650205 -0.010226927 -0.036214326
0.06527509 -0.07677989 -0.01982854 -0.023235498 0.012060578 -0.05646225 0.077553265 0.008417686
0.026710408 0.0011584488 -0.028285053 0.05009868 0.029804861 0.048715338 -0.031487327 0.06825054
-0.012070576 -0.08439347 -0.056252666 0.010617292 0.06842423 0.026252752 -0.006425935 0.0852536
0.07464267 0.024342287 -0.061600752 -0.013139981 0.0011531712 -0.06991975 -0.03850741 0.07637263
-0.0075677573 -0.02577544 -0.08036214 0.018823138 -0.0758887 0.06957255 -0.06101042 0.0877898
0.028337246 0.012908722 0.010908732 -0.034650333 -0.048873328 -0.06656896 0.020975303 -0.049278487
0.07760262 -0.030934045 0.04255139 -0.0065316125 0.035222314 0.016013365 0.087973714 0.065261364
-0.024025217 0.07255386 0.05817222 0.066557735 -0.01011297 -0.084812865 0.0021771563 -0.02853126
0.02646142 0.03490232 -0.0076510124 -0.021603905 -0.036508664 -0.05016444 0.082688786 0.044938263
0.04101927 0.085288696 -0.023652047 0.044914253 -0.067298986 -0.011498539 0.06350145 0.00905293
-0.023453275 -0.046180297 -0.029122513 -0.00048538673 0.0014409705 0.08448386 -0.071526706 -0.082416676
0.016324531 0.0040007415 -0.020233115 0.054439187 -0.0529337 0.04311285 -0.06995511 0.035315532
0.06245502 -0.009554102 -0.00089335674 0.08580454 0.06411869 -0.027091112 0.077929564 0.012772446
0.031313337 0.08081985 0.08453736 0.033677235 0.017897623 -0.008057719 -0.020553034 0.043584395
0.083215244 -0.08561816 -0.007246815 0.08354787 0.03478024 -0.005891771 0.048176292 0.07779439
0.06269893 -0.040907003 0.039155085 0.08770759 -0.02780156 0.08371903 -0.07206155 -0.06948951
-0.057143662 0.07255364 0.01523639 -0.06473731 -0.04783286 -0.013695482 -0.07667454 0.004194338
0.04198926 -0.011336365 -0.01085652 0.0077370997 0.08211042 -0.04308593 0.016008707 -0.061270934
00000000: 8b56 b83a b5b1 703d 1d39 9c3d 107f 8b3d
00000010: a65e 5fbd c489 15bd 30f8 26bd 3750 3a3d
00000020: eeab a1bb c59c ae3d 3904 813d 7167 0cbd
00000030: b71d 11bb 6e65 95bc 7b13 29bd d172 83bc
00000040: f3ba 5a3d 7522 e8bc 257e f03c adae 18bd
00000050: b60c 27bc 2054 1a3d 9115 ad3c 2fb6 573c
00000060: 8dc8 513d 6418 28bd caad 86bd 42a0 9bbd
00000070: 5fb9 acbd 90fc da3c 7015 aa3c 1162 653d
00000080: 7e31 8d3d 5805 ee3c acc1 413c f873 f4bc
00000090: 08b4 8e3d 0dad 9f3d d388 923c bd1c 863d
000000a0: e923 68bd 1993 98bc 640a c03b 0687 573c
000000b0: 0cc6 98bd 560d 1cbd f828 5c3c 24f9 da3c
000000c0: c796 34bd ee51 033c 6c43 a5bc b5fa b2bb
000000d0: 5e77 c9bc f90c 63bc 1be1 9dbd 6bd0 6b3d
000000e0: 8d59 99bd d2a7 82bd cf52 9bbd 3166 a0bd
000000f0: df73 a7bd 4f05 263d e40c 89bd 5ae3 c8bc
00000100: f270 2d3c 7a84 5d3c 6a85 013d a3e7 a3bd
00000110: 392b 1abd f4e3 d7ba 95cf 5cbd d96f 61bd
00000120: 006b 473d 4504 99bd c32e 3fbc 1746 5a3d
00000130: d2d4 1c3d 0066 b33c 8b94 ab3d 3518 18bd
00000140: 1ddd 0bbd 5a27 49bd 2332 553d 8f31 6dbc
00000150: beb3 a53d 5dcf c23c e56e 513d aa07 223d
00000160: 0e6f 0ebd e6c7 bdbb 1ffa 1abd 34f5 08bd
00000170: bb73 0f3d f83b 33bd ce27 853d 198f a33d
00000180: 945f b0bd bac8 9f3c 2b51 953d bca8 7fbd
00000190: ff0d 46bd 196e 823d 8ec7 133c 6ae9 573d
000001a0: 46d0 9c3b a797 0a3d b653 783d 5ebb fcbc
000001b0: b733 973d 0eb1 90bd d78e 27bc 7955 14bd
000001c0: f2ae 853d c63e 9dbd 766f a2bc 5f58 bebc
000001d0: bb99 453c f644 67bd 3fd4 9e3d 56ea 093c
000001e0: c9cf da3c 17d7 973a 0eb6 e7bc 4634 4d3d
000001f0: 5329 f43c bc89 473d dbf8 00bd f0c6 8b3d
00000200: aac3 45bc 7cd6 acbd 3269 66bd 26f4 2d3c
00000210: 0122 8c3d 0310 d73c a690 d2bb 7099 ae3d
00000220: 42de 983d 7a69 c73c 1251 7cbd 1349 57bc
00000230: 0126 973a 1632 8fbd f2b9 1dbd 4169 9c3d
00000240: f3fa f7bb 0427 d3bc e894 a4bd fb32 9a3c
00000250: 896b 9bbd 0e7c 8e3d 10e6 79bd 23cb b33d
00000260: 8323 e83c 1b7f 533c 8aba 323c 82ed 0dbd
00000270: 662f 48bd 4f55 88bd 66d4 ab3c 3dd8 49bd
00000280: 1fee 9e3d 6569 fdbc 5e4a 2e3d 2307 d6bb
00000290: 4645 103d 762e 833c 902b b43d c0a7 853d
000002a0: 88d0 c4bc 1e97 943d fe45 6e3d 6c4f 883d
000002b0: dfb0 25bc 5eb2 adbd 9fae 0e3b 64ba e9bc
000002c0: 9fc5 d83c bcf5 0e3d 58b5 fabb acfa b0bc
000002d0: 1c8a 15bd 3a79 4dbd bd58 a93d 2f11 383d
000002e0: d203 283d d7ab ae3d f0c1 c1bc 02f8 373d
000002f0: 0dd4 89bd 5e64 3cbc 0c0d 823d be52 143c
00000300: 1521 c0bc 8d27 3dbd 5692 eebc 817b feb9
00000310: f2de bc3a e005 ad3d 987c 92bd 13ca a8bd
00000320: 06bb 853c a718 833b ebbf a5bc a0fb 5e3d
00000330: 02d1 58bd 1a97 303d a044 8fbd 05a7 103d
00000340: d6d0 7f3d cf88 1cbc 2830 6aba 4aba af3d
00000350: a950 833d 2eee ddbc 8999 9f3d 8543 513c
00000360: 6a42 003d e184 a53d ec21 ad3d 24f1 093d
00000370: 099e 923c 8604 04bc d65e a8bc 8d85 323d
00000380: c16c aa3d 9358 afbd b176 edbb 251b ab3d
00000390: ba75 0e3d c20f c1bb 8154 453d aa52 9f3d
000003a0: 4c68 803d 1a8e 27bd 1561 203d 09a0 b33d
000003b0: 19c0 e3bc e274 ab3d 0295 93bd 8450 8ebd
000003c0: 790f 6abd 0197 943d 0da2 793c ff94 84bd
000003d0: 64ec 43bd 0463 60bc 8b07 9dbd a870 893b
000003e0: eefc 2b3d 29bc 39bc 8cdf 31bc 7f87 fd3b
000003f0: 8229 a83d df7a 30bd b124 833c 3bf7 7abd

rnn_module.gru.bias_ih_l0 f4 [384]
0.087882295 -0.010844196 0.08419575 0.03853872 0.029646523 -0.0765719 0.010035903 0.014383368
0.08531262 -0.086832255 0.06542231 0.011720165 -0.050758597 -0.047284998 -0.019378886 -0.07902079
-0.061559647 0.05828532 -0.059997886 -0.002828091 -0.036291827 0.07267381 -0.03863224 -0.012626323
-0.04126927 0.030299518 0.03884809 0.014176986 -0.0862657 0.03537267 0.06822381 -0.035503935
-0.06860357 0.0804971 0.04645415 0.041971818 0.063342 0.04558636 -0.04964899 -0.023029514
0.02960151 0.03782522 0.05340371 -0.06570488 0.031112442 -0.047906004 -0.053660296 0.0792874
-0.04813031 0.024292395 0.025635429 -0.06547258 0.071005814 0.022336408 -0.033911377 0.058210324
0.040561896 -0.07891176 0.027399456 -0.064778745 -0.07817783 0.034588035 -0.060060192 0.06176752
0.076267965 0.024494868 -0.0654112 0.07097079 0.0533197 0.0781023 -0.0280073 -0.076747626
0.08549425 0.051683817 0.053126436 0.06349734 -0.053222653 0.014334208 -0.03971052 -0.07923441
-0.05989876 0.07243313 0.08612566 -0.0461149 0.064623065 0.046342086 0.0128370505 -0.02722735
0.043627538 -0.05601528 0.036938358 -0.02131261 0.060427256 -0.04867546 -0.063395336 0.061645534
-0.05178047 0.06957911 -0.05499277 0.066403925 -0.0713846 0.006661602 -0.008207922 -0.0865608
0.02998628 0.012278767 -0.00052986864 0.025325337 0.07450893 -0.01996009 -0.02361525 0.07154347
-0.024346596 -0.008308094 0.024137286 -0.06332992 -0.025051838 -0.071047686 0.04519358 0.0104569895
-0.08022019 0.082238995 -0.07484441 -0.01053827 -0.031019647 -0.06574594 -0.06324654 -0.007200401
0.002555513 -0.079839975 0.027575675 -0.03165453 0.08519727 -0.0035887132 0.051232345 0.021475127
-0.050902788 0.03307527 -0.019976046 0.07877047 -0.015795462 -0.04504647 0.047786854 0.0027302655
0.08311643 -0.015920158 0.07488817 0.056785572 0.07631471 0.00691943 -0.04464792 -0.051247403
-0.025309265 -0.06820598 0.053278435 -0.056306943 0.04241572 -0.024700433 -0.06416328 -0.048373897
0.039201915 0.065046504 0.00070479576 0.068231694 -0.0718457 0.0073117013 0.007710616 0.055875972
0.022209061 0.07610967 -0.061402995 0.0393049 -0.08810278 0.07651359 -0.040367097 0.051136114
0.067606345 -0.040362097 -0.004703326 0.029365772 -0.056461476 0.05139233 0.0027092958 0.061771158
-0.06292606 0.027197137 0.05257576 -0.08612628 0.035147734 -0.040742934 0.052819796 -0.070840545
0.0060008103 -0.047579084 0.032205638 0.014718357 -0.01907599 0.064738706 0.03274314 0.008131306
0.05764846 -0.07273268 0.083848916 -0.0733976 0.036781322 -0.03658787 -0.07080866 0.04339105
-0.07999939 -0.019394556 0.023438094 0.04792423 0.017500117 -0.077539474 0.03520903 0.050900336
0.06240263 0.07992218 0.062231235 0.011081091 -0.070825025 -0.06626112 0.08186502 -0.0150891235
-0.022875626 -0.07120423 0.075904846 -0.07980824 -0.04804459 0.056334525 -0.08601354 -0.044346396
0.086232334 0.024735006 0.045978684 -0.034479268 0.07349587 -0.02404991 -0.01317106 -0.010228557
0.04696894 0.055349648 -0.056584083 0.017445205 0.07763351 -0.023237176 -0.059357043 -0.012239706
-0.08017967 0.08573752 0.018387299 0.024177434 0.04737096 -0.053194426 0.026664438 -0.06583024
00000000: a2fb b33d dbab 31bc d26e ac3d c7da 1d3d
00000010: 44dd f23c bad1 9cbd a16d 243c 38a8 6b3c
00000020: 62b8 ae3d 1cd5 b1bd 22fc 853d ef05 403c
00000030: 3fe8 4fbd eaad 41bd 78c0 9ebc a7d5 a1bd
00000040: f825 7cbd 96bc 6e3d 58c0 75bd 7e57 39bb
00000050: bda6 14bd 02d6 943d d73c 1ebd a3de 4ebc
00000060: f709 29bd b236 f83c 2d1f 1f3d 9746 683c
00000070: 12ac b0bd efe2 103d edb8 8b3d 936c 11bd
00000080: 0780 8cbd aadb a43d b546 3e3d a4ea 2b3d
00000090: 73b9 813d c3b8 3a3d bd5c 4bbd 64a8 bcbc
000000a0: de7e f23c 9eee 1a3d d9bd 5a3d 4890 86bd
000000b0: 85df fe3c 1639 44bd e6ca 5bbd 6f61 a23d
000000c0: 4a24 45bd d800 c73c 6401 d23c 7d16 86bd
000000d0: 7f6b 913d d8fa b63c a8e6 0abd f36d 6e3d
000000e0: 3b24 263d 7d9c a1bd d374 e03c b8aa 84bd
000000f0: b31b a0bd 2fac 0d3d ad01 76bd f0ff 7c3d
00000100: 6132 9c3d 76a9 c83c 4ff6 85bd 2259 913d
00000110: c265 5a3d 19f4 9f3d 916f e5bc dc2d 9dbd
00000120: 9c17 af3d 69b2 533d 1b9b 593d e50a 823d
00000130: ffff 59bd 07da 6a3c 80a7 22bd a645 a2bd
00000140: 6758 75bd d257 943d a662 b03d fae2 3cbd
00000150: 1959 843d 33d1 3d3d 7e52 523c e40b dfbc
00000160: cab2 323d 4770 65bd ad4c 173d c897 aebc
00000170: 9282 773d eb5f 47bd 6ad5 81bd 0780 7c3d
00000180: c217 54bd 7e7f 8e3d 1940 61bd c8fe 873d
00000190: 1732 92bd 9149 da3b 857a 06bc ca46 b1bd
000001a0: c9a5 f53c e22c 493c e2e6 0aba 1577 cf3c
000001b0: 2398 983d 5883 a3bc c574 c1bc 6285 923d
000001c0: 8372 c7bc ac1e 08bc 8fbb c53c 1eb3 81bd
000001d0: 8339 cdbc 7381 91bd e71c 393d cb53 2b3c
000001e0: 7c4a a4bd eb6c a83d 0748 99bd b5a8 2cbc
000001f0: ea1c febc cfa5 86bd 6787 81bd 57f1 ebbb
00000200: 657a 273b 2483 a3bd 62e6 e13c 2ea8 01bd
00000210: e87b ae3d 9e30 6bbb 02d9 513d 9bec af3c
00000220: 717f 50bd ef79 073d cea4 a3bc 6a52 a13d
00000230: 7c65 81bc a682 38bd 26bc 433d 41ee 323b
00000240: f238 aa3d fe6a 82bc f85e 993d fd97 683d
00000250: e34a 9c3d 63bc e23b bde0 36bd cce8 51bd
00000260: 6055 cfbc 94af 8bbd 7d3a 5a3d 1ca2 66bd
00000270: 1bbc 2d3d 9058 cabc 0a68 83bd b523 46bd
00000280: 3092 203d 1a37 853d 0bc2 383a 0fbd 8b3d
00000290: d723 93bd ff96 ef3b 56a9 fc3b 34de 643d
000002a0: c7ef b53c 63df 9b3d b581 7bbd 2dfe 203d
000002b0: 3b6f b4bd 28b3 9c3d f857 25bd 1a74 513d
000002c0: 3275 8a3d ba52 25bd 5c1e 9abb 7d90 f03c
000002d0: 2644 67bd c480 523d 718e 313b c103 7d3d
000002e0: 61df 80bd 88cc de3c ae59 573d fa62 b0bd
000002f0: 12f7 0f3d 10e2 26bd 9259 583d d914 91bd
00000300: 72a2 c43b 49e2 42bd 0fea 033d 4325 713c
00000310: 4045 9cbc ba95 843d ac1d 063d 2b39 053c
00000320: cb20 6c3d dff4 94bd fbb8 ab3d 7b51 96bd
00000330: 03a8 163d 2add 15bd 2104 91bd d0ba 313d
00000340: b8d6 a3bd 55e1 9ebc 3f01 c03c 334c 443d
00000350: 685c 8f3c 04cd 9ebd 5837 103d df7c 503d
00000360: e699 7f3d 3dae a33d 2ee6 7e3d 778d 353c
00000370: b60c 91bd e9b3 87bd d9a8 a73d 5f38 77bc
00000380: aa65 bbbc 86d3 91bd 0074 9b3d 8172 a3bd
00000390: 67ca 44bd 08bf 663d de27 b0bd 91a4 35bd
000003a0: 949a b03d 11a1 ca3c 2554 3c3d 223a 0dbd
000003b0: 0185 963d 5104 c5bc 6ecb 57bc ad95 27bc
000003c0: 8162 403d 50b6 623d b6c4 67bd 3fe9 8e3c
000003d0: 51fe 9e3d e45b bebc 5f20 73bd 0c89 48bc
000003e0: 3d35 a4bd 2797 af3d f6a0 963c c10f c63c
000003f0: 0d08 423d 66e2 59bd 616f da3c 01d2 86bd

rnn_module.gru.bias_hh_l0 f4 [384]
-0.010078714 -0.063659735 0.03114825 -0.071015194 0.08204842 0.0449672 -0.00024257078 -0.015861304
0.07185677 0.031775113 -0.088743255 -0.050893195 -0.018860549 0.042416267 0.03602333 0.032979637
-0.07053366 -0.0018278403 -0.017203366 -0.009289221 -0.019790571 -0.0057802056 0.03740696 -0.0819478
-0.057979774 0.050074805 -0.040102843 -0.062196027 0.06425703 0.02488672 0.013769569 0.07505792
-0.031024244 0.027053192 0.07125299 -0.07343381 -0.038010336 -0.06280869 0.068162404 -0.052142162
0.051062964 -0.018355932 -0.026644925 -0.06349323 0.077145845 0.08388273 -0.03785042 0.05633196
-0.058311462 0.045991372 -0.043721747 0.024810744 0.045556508 0.03547207 -0.04467625 -0.05280833
-0.07589795 0.028153626 -0.0032244667 -0.06866626 0.059299212 0.0654741 -0.05093125 0.046018958
0.010366311 -0.051732384 0.060283918 0.071485266 0.018922957 -0.07975093 -0.030716574 0.06725791
0.014463355 0.03469621 -0.0113268355 -0.012324307 0.037059173 0.050693367 -0.034386564 0.015863957
-0.013659716 0.06534347 -0.028242942 -0.036232695 0.02154276 0.011972193 -0.08049039 0.07812531
-0.0726506 -0.046988808 -0.076624446 0.027641222 -0.050847158 -0.08880511 0.018092237 0.023499537
0.027273223 -0.01737089 0.01611477 0.0075467885 0.079302 -0.084740356 0.01384674 0.010668008
0.06009407 -0.047978327 -0.04385736 0.004217011 -0.04567041 0.015400924 0.06429784 -0.037257895
-0.032687347 0.06982377 -0.04587421 -0.020397063 -0.041907556 0.035287894 -0.052707758 0.029394481
0.03736739 0.07768694 -0.069904946 -0.074720174 0.026266603 0.07319704 0.076059245 0.046599418
0.020056136 -0.017015032 0.060947325 -0.053818617 0.06747751 -0.08814844 0.07446308 0.06086882
0.062203217 -0.056284744 -0.060207315 -0.04160564 -0.01848852 -0.033011936 0.02582734 -0.011068677
-0.003964687 -0.06268805 0.043939453 0.036322046 -0.061754275 0.07433254 -0.03602343 0.03475935
0.0011546871 -0.05442998 -0.06377852 -0.06264219 0.08356742 -0.0032565196 0.020041658 0.00043609334
-0.08067801 0.010405967 -0.085914396 -0.023521202 0.018227454 -0.020907864 -0.02238548 0.038319737
0.04787911 -0.035004627 0.052800473 -0.08749283 0.04970095 -0.01513552 -0.06907814 -0.055204958
0.017609762 -0.05410846 0.0699224 0.05177714 -0.009855771 -0.08792418 0.02117951 0.044882543
-0.018778095 -0.008906132 -0.028984979 -0.08083564 0.015621133 0.08325774 -0.078999385 -0.020902457
-0.04036986 0.026085863 0.0072364295 -0.0179472 0.015692405 -0.03891323 0.018198706 0.053104043
-0.022838011 0.012128965 -0.03999662 0.018429361 -0.06437971 0.085750304 0.0352179 -0.03667359
0.074031524 -0.005480558 0.034206685 0.043662976 0.050493635 0.038256936 -0.07935259 -0.011705127
0.017729588 -0.03830246 -0.08715149 -0.026009534 0.08471404 -0.05309999 -0.04979327 -0.0415902
-0.07268273 -0.056363065 0.054324776 -0.003067869 0.047939427 -0.025817763 -0.07316933 0.04423254
0.06572765 0.028541537 -0.069787614 0.07022541 0.029226787 -0.04031666 0.060262337 0.05919486
0.07698444 -0.025371877 -0.030605098 0.07329097 -0.0009825871 -0.038841117 -0.05950063 -0.016820488
-0.056822456 -0.034630775 -0.06674047 -0.017452767 0.034271184 -0.012820101 -0.050726704 0.08503923
00000000: 3121 25bc 0960 82bd 9d2a ff3c 6a70 91bd
00000010: 0109 a83d 872f 383d 995a 7eb9 91ef 81bc
00000020: a429 933d 9f26 023d 06bf b5bd 6275 50bd
00000030: 7081 9abc aebc 2d3d 338d 133d a815 073d
00000040: f473 90bd 2594 efba 13ee 8cbc d131 18bc
00000050: d61f a2bc e167 bdbb 0a38 193d 40d4 a7bd
00000060: 337c 6dbd 3d1b 4d3d e142 24bd 43c1 7ebd
00000070: 3199 833d 3cdf cb3c c299 613c f7b7 993d
00000080: 8e26 febc a89e dd3c 16ed 913d 7764 96bd
00000090: bab0 1bbd d8a1 80bd bb98 8b3d 0593 55bd
000000a0: 6627 513d 2e5f 96bc 7546 dabc bd08 82bd
000000b0: a4fe 9d3d b5ca ab3d 0b09 1bbd 57bc 663d
000000c0: 00d8 6ebd 7361 3c3d 9315 33bd e73f cb3c
000000d0: 7699 3a3d 294b 113d 72fe 36bd 8c4d 58bd
000000e0: 6270 9bbd 6fa2 e63c 9351 53bb e5a0 8cbd
000000f0: bbe3 723d 4917 863d 499d 50bd 607e 3c3d
00000100: 76d7 293c 56e5 53bd 45ec 763d de66 923d
00000110: 5104 9b3c 7554 a3bd 53a1 fbbc 84be 893d
00000120: b5f7 6c3c 9d1d 0e3d 3194 39bc e4eb 49bc
00000130: 5ccb 173d d9a3 4f3d edd8 0cbd 21f5 813c
00000140: 00cd 5fbc ccd2 853d be5d e7bc bc68 14bd
00000150: 717a b03c 0427 443c 25d8 a4bd 2a00 a03d
00000160: d6c9 94bd 5677 40bd 47ed 9cbd d86f e23c
00000170: 1c45 50bd 74df b5bd 2c36 943c 1a82 c03c
00000180: 186c df3c 664d 8ebc 1f03 843c 0d4b f73b
00000190: 1669 a23d 5a8c adbd 70dd 623c dec8 2e3c
000001a0: 3325 763d ec84 44bd c6a3 33bd da2e 8a3b
000001b0: e510 3bbd 2854 7c3c 96ae 833d bc9b 18bd
000001c0: 2be3 05bd c4ff 8e3d 98e6 3bbd be17 a7bc
000001d0: 42a7 2bbd 0a8a 103d 17e4 57bd b2cc f03c
000001e0: 8c0e 193d 551a 9f3d 532a 8fbd e406 99bd
000001f0: 0f2d d73c 54e8 953d f3c4 9b3d 08df 3e3d
00000200: c44c a43c 1c63 8bbc e7a3 793d e970 5cbd
00000210: a631 8a3d 2b87 b4bd 1980 983d 9551 793d
00000220: cdc8 7e3d d58a 66bd f29b 76bd ad6a 2abd
00000230: 3d75 97bc 8637 07bd dc93 d33c 6559 35bc
00000240: 35ea 81bb 9862 80bd dbf9 333d 6dc6 143d
00000250: 0df2 7cbd a93b 983d 4e8d 13bd d25f 0e3d
00000260: df58 973a f9f1 5ebd 509e 82bd 8c4a 80bd
00000270: 6525 ab3d 556b 55bb 672e a43c 75a3 e439
00000280: 833a a5bd ca7d 2a3c e3f3 afbd 89af c0bc
00000290: be51 953c f846 abbc c161 b7bc 28f5 1c3d
000002a0: e31c 443d 0361 0fbd 4f45 583d 712f b3bd
000002b0: 3993 4b3d f9fa 77bc d778 8dbd 981e 62bd
000002c0: 5942 903c d5a0 5dbd 7a33 8f3d 4414 543d
000002d0: 1a7a 21bc 9811 b4bd a780 ad3c c2d6 373d
000002e0: 85d4 99bc 06eb 11bc e871 edbc 288d a5bd
000002f0: c8ef 7f3c 0983 aa3d 6eca a1bd a13b abbc
00000300: de5a 25bd 05b2 d53c 921f ed3b 0206 93bc
00000310: 5c8d 803c 7b63 1fbd 7415 953c a083 593d
00000320: c816 bbbc 91b8 463c 7fd3 23bd 2cf9 963c
00000330: 82d9 83bd db9d af3d a540 103d 0c37 16bd
00000340: d79d 973d 4196 b3bb 4f1c 0c3d f3d7 323d
00000350: 6ad2 4e3d 4eb3 1c3d 9c83 a2bd dcc6 3fbc
00000360: a43d 913c 0ae3 1cbd 7b7c b2bd f211 d5bc
00000370: 8e7e ad3d 607f 59bd 07f4 4bbd 7c5a 2abd
00000380: afda 94bd f5dc 66bd a883 5e3d 4d0e 49bb
00000390: 225c 443d c67f d3bc cdd9 95bd 2e2d 353d
000003a0: 389c 863d f1cf e93c cfec 8ebd 57d2 8f3d
000003b0: 046d ef3c 1523 25bd a4d5 763d 4f76 723d
000003c0: 05aa 9d3d afd8 cfbc 8bb7 fabc 9319 963d
000003d0: 27ca 80ba dd17 1fbd efb6 73bd 1fcb 89bc
000003e0: aabe 68bd 00d9 0dbd 3aaf 88bd 1bf9 8ebc
000003f0: f15f 0c3d 670b 52bc cec6 4fbd 0c29 ae3d

rnn_b_module.gru.weight_ih_l0 f4 [384, 128]
0.015198739 0.01337915 0.055830587 -0.009868387 0.026850665 0.070967294 0.06243368 0.04662808
0.0058973553 -0.07749261 -0.041071493 0.009869605 0.03424472 -0.027182428 -0.04169236 0.04863652
-0.00010833 -0.05063642 0.022002531 -0.039551858 -0.04559128 0.030245533 -0.051676407 -0.040539905
-0.024411784 -0.08102664 0.08153365 -0.053934615 -0.04795834 -0.04178991 -0.0029373693 -0.0009164022
0.016574027 -0.012020692 -0.076718695 0.0027396206 -0.05810962 -0.003591868 0.0152167035 -0.019259898
-0.07060366 0.08788981 0.054149523 0.06742728 0.06701347 -0.055846784 -0.07445795 -0.055346254
0.06919786 -0.06699101 -0.028623259 -0.03075859 0.08295043 -0.068158746 0.08707461 -0.0012108699
-0.070730805 -0.028507253 0.019297857 -0.06293643 -0.08359644 -0.015309715 0.07595488 0.07806744
0.044933334 0.020394314 0.048068665 0.05414476 0.03921048 0.029528365 -0.043498497 0.08306541
0.03962132 0.006537961 0.07957412 0.067541994 0.059718464 -0.08359345 -0.058093295 0.05381409
0.009961823 -0.023242032 -0.058385503 0.08518172 -0.01104072 0.076727964 0.08063231 0.019412361
0.08770651 -0.0848283 0.038155146 -0.0051301927 -0.088399865 0.031927012 0.034731973 -0.044601433
0.0732836 0.01958758 -0.020892201 0.007303214 0.081960514 0.058472324 -0.041788142 0.062927835
0.06240535 -0.02999458 0.0132074375 -0.018575888 0.06986763 0.011542113 -0.052331634 0.002457339
-0.07384493 -0.042399846 0.0031611358 -0.0020240243 0.020438392 -0.051305387 0.056873746 -0.07450891
0.0202958 -0.068479374 0.0037731975 -0.03671515 -0.03634167 -0.067863904 -0.07271522 0.052957874
0.028635934 -0.018725833 0.04389618 0.0051961183 -0.0059785913 -0.0011924539 0.033617195 -0.084668875
0.050066918 -0.08751677 -0.013001429 0.03487046 -0.020277796 0.024195299 -0.056222152 0.057860937
-0.061483644 0.083410144 -0.056016486 0.02884124 0.040787682 -0.0700529 0.011962741 -0.020250939
0.08159135 0.054093033 -0.055381257 -0.02414221 0.04681568 -0.018982247 -0.036149535 0.06782307
0.066526845 0.043541323 -0.039542925 0.052981395 -0.01757515 0.012582022 0.012810502 0.04369488
-0.08760136 -0.04768849 -0.048128042 -0.035106603 -0.016622337 -0.04828282 -0.08446959 -0.021820856
-0.011730006 -0.05576892 -0.019297188 0.0018868049 -0.08045563 -0.0030701912 -0.05344903 0.061490715
-0.062148437 -0.01529814 -0.019200502 0.040140394 -0.077265635 -0.07138219 0.046066836 -0.03325924
0.0025523242 -0.021507995 -0.070748314 0.08515235 -0.02687671 -0.040437758 0.015689064 -0.029971212
0.069058515 -0.06507947 0.01800101 -0.006872785 0.04520025 -0.060639523 0.0028311587 0.036995336
0.052973915 0.08431745 -0.08426257 0.045655504 -0.07238948 0.057509296 -0.024394395 -0.020799335
-0.07678072 -0.08181977 -0.03419749 -0.08260642 -0.015048609 0.06871034 -0.037968397 -0.02083343
-0.06525647 0.08964476 0.007997491 0.056150526 -0.0020105743 -0.060741838 -0.033833396 -0.001868457
-0.002863826 0.085807614 0.07169394 -0.059687875 -0.07714671 0.04330807 0.0697041 -0.054748267
-0.030337987 0.061308708 -0.039990418 -0.07334367 0.0775353 -0.02956244 -0.015480502 0.014131558
-0.07170194 -0.01907441 -0.040202595 -0.02824137 0.03189487 0.054544125 0.038297124 -0.04951077
00000000: 2204 793c 3934 5b3c 9dae 643d 04af 21bc
00000010: edf5 db3c 4d57 913d 75ba 7f3d 16fd 3e3d
00000020: 9a3e c13b 72b4 9ebd 953a 28bd 20b4 213c
00000030: 3144 0c3d afad debc 9cc5 2abd 1637 473d
00000040: 3a2f e3b8 2268 4fbd a73e b43c 2101 22bd
00000050: ecbd 3abd 7bc5 f73c a4aa 53bd 2c0d 26bd
00000060: 39fb c7bc 4cf1 a5bd 1dfb a63d 8bea 5cbd
00000070: f76f 44bd e62b 2bbd e180 40bb b63a 70ba
00000080: 41c6 873c 70f2 44bc b11e 9dbd 358b 333b
00000090: 5a04 6ebd 8c65 6bbb 7b4f 793c efc6 9dbc
000000a0: a798 90bd 93ff b33d e4cb 5d3d 5017 8a3d
000000b0: 5c3e 893d 99bf 64bd 697d 98bd c1b2 62bd
000000c0: 9cb7 8d3d 9532 89bd 537b eabc 70f9 fbbc
000000d0: eae1 a93d d096 8bbd 2c54 b23d 0db6 9eba
000000e0: 50db 90bd 0b88 e9bc 8a16 9e3c d1e4 80bd
000000f0: 9c34 abbd 99d5 7abc 3b8e 9b3d d2e1 9f3d
00000100: 040c 383d fa11 a73c a6e3 443d e5c6 5d3d
00000110: 2b9b 203d 78e5 f13c 7b2b 32bd 331e aa3d
00000120: f749 223d 643c d63b c2f7 a23d 7553 8a3d
00000130: 599b 743d 0b33 abbd 3cf3 6dbd 2a6c 5c3d
00000140: ea36 233c 1366 bebc a325 6fbd c173 ae3d
00000150: 23e4 34bc 8d23 9d3d 8d22 a53d ac06 9f3c
00000160: 799f b33d 76ba adbd 9248 1c3d 2d1b a8bb
00000170: fd0a b5bd e6c5 023d 1d43 0e3d feaf 36bd
00000180: b615 963d 2276 a03c 1f26 abbc cd4f ef3b
00000190: eada a73d ad80 6f3d 0b2a 2bbd 4fe0 803d
000001a0: c19c 7f3d 32b7 f5bc 0264 583c 762c 98bc
000001b0: c316 8f3d 211b 3d3c b259 56bd 4f0b 213b
000001c0: 033c 97bd 76ab 2dbd 0f2b 4f3b 7ea5 04bb
000001d0: 6a6e a73c 9925 52bd 72f4 683d 2198 98bd
000001e0: 6143 a63c ea3e 8cbd c047 773b a062 16bd
000001f0: 01db 14bd 3bfc 8abd b8eb 94bd 5bea 583d
00000200: e895 ea3c eb66 99bc 7bcc 333d 3344 aa3b
00000210: 0fe8 c3bb 1d4c 9cba 2fb2 093d e066 adbd
00000220: f812 4d3d fe3b b3bd f203 55bc 54d4 0e3d
00000230: 9f1d a6bc 3835 c63c 3349 66bd 97ff 6c3d
00000240: 46d6 7bbd f0d2 aa3d 8b71 65bd 7744 ec3c
00000250: fc10 273d e577 8fbd 5fff 433c 4ce5 a5bc
00000260: 5e19 a73d a890 5d3d 75d7 62bd e2c5 c5bc
00000270: ccc1 3f3d a880 9bbc 8911 14bd d2e6 8a3d
00000280: 3a3f 883d 6358 323d c3f7 21bd 0503 593d
00000290: c3f9 8fbc d324 4e3c 24e3 513c 67f9 323d
000002a0: 5868 b3bd 0255 43bd e921 45bd f1cb 0fbd
000002b0: 912b 88bc 35c4 45bd 64fe acbd a7c1 b2bc
000002c0: 362f 40bc f36d 64bd 2315 9ebc ab4e f73a
000002d0: ecc5 a4bd 4335 49bb 5fed 5abd b0dd 7b3d
000002e0: 5c8f 7ebd 0da5 7abc 5f4a 9dbc 416a 243d
000002f0: 723d 9ebd d330 92bd 94b0 3c3d d73a 08bd
00000300: e544 273b 8931 b0bc 7ee4 90bd 5b64 ae3d
00000310: 8c2c dcbc 10a2 25bd 5a86 803c 3086 f5bc
00000320: 8d6e 8d3d 6348 85bd db76 933c 1935 e1bb
00000330: e623 393d 2661 78bd f68a 393b 6c88 173d
00000340: 2dfb 583d a1ae ac3d db91 acbd 4401 3b3d
00000350: f040 94bd de8e 6b3d c1d6 c7bc 5e63 aabc
00000360: 363f 9dbd 2091 a7bd ab12 0cbd 8e2d a9bd
00000370: 718e 76bc 02b8 8c3d c084 1bbd dfaa aabc
00000380: 2fa5 85bd ac97 b73d e907 033c 18fe 653d
00000390: d7c3 03bb 6fcc 78bd e394 0abd 03e7 f4ba
000003a0: 07af 3bbb e7bb af3d 46d4 923d 467b 74bd
000003b0: 18ff 9dbd ce63 313d 06c1 8e3d b83f 60bd
000003c0: 5f87 f8bc d71e 7b3d fecc 23bd 3535 96bd
000003d0: d4ca 9e3d ee2c f2bc eea1 7dbc 0d88 673c
000003e0: 77d8 92bd f041 9cbc 7aab 24bd 725a e7bc
000003f0: 32a4 023d a969 5f3d 72dd 1c3d cecb 4abd

rnn_b_module.gru.weight_hh_l0 f4 [384, 128]
0.043350246 0.026314123 0.04908148 -0.06105022 -0.08485548 0.034276873 0.084080555 -0.054834466
-0.05361486 -0.024607265 0.08231554 0.025380826 0.036331393 0.07816271 -0.062935494 -0.066508085
-0.05179984 0.07896139 -0.06582759 0.026157947 0.03681883 0.06698467 -0.046531096 0.05976971
-0.007727274 0.0024078982 -0.073193364 -0.061858915 -0.02015477 -0.057077087 -0.035663385 0.012244618
0.058655363 0.035733726 -0.049241096 0.003931577 -0.06837745 0.012678645 0.052172206 0.028890263
-0.04597998 -0.024837531 0.014232707 -0.06963121 0.036371496 0.045477245 -0.08152364 -0.021424912
-0.062044576 0.069533475 -0.035108287 0.08686358 0.042643998 0.023499064 0.06936862 0.054189105
0.006849355 0.07738381 0.055895574 0.041701846 0.029349178 0.04929272 -0.033740558 0.03527207
0.017791616 0.03527862 0.08759023 0.06388428 0.057487693 0.027303841 0.054536883 0.082561046
0.06329133 0.009925604 0.03199456 0.03328604 -0.03900174 -0.049471196 -0.043963127 0.08126365
-0.028730717 -0.051859338 -0.030224094 -0.07350313 0.051721167 0.062823795 -0.033152938 -0.083135284
-0.07574227 0.0019232564 -0.028074177 0.013663814 -0.0040728617 0.05115182 0.018596236 -0.07304652
0.080797315 -0.06998874 -0.08457158 -0.06996249 0.0054465355 0.017136345 0.040473823 0.08098414
0.015011006 0.08829191 -0.014200889 -0.015878297 -0.04952136 -0.027684685 -0.06525286 -0.0828942
0.012360446 0.075187325 0.033868484 -0.081959225 0.014800278 0.031907957 0.08196241 -0.011183494
-0.07040111 0.032200653 -0.030093657 -0.06552578 0.08227273 0.056023892 -0.05657109 0.0028574402
0.07428896 0.054585155 0.024663813 -0.06816285 -0.036288112 0.026911004 -0.07849571 0.07945222
-0.06543207 -0.03763956 0.07006958 0.059110396 -0.083108425 0.052590303 -0.07576885 -0.020029895
-0.07579849 0.0048347316 -0.0153471865 -0.073539086 -0.009063393 0.027181977 0.0028247533 0.024263442
-0.0073633534 0.07896368 0.017163416 0.039536726 -0.084848374 0.0025405497 -0.07552804 -0.006289271
0.04494926 -0.03748254 0.03586627 -0.043958962 0.06095633 0.025090078 -0.037791707 -0.040074915
-0.05112744 0.07007791 -0.049084622 -0.018901305 -0.06187261 -0.0047165267 -0.055264182 -0.055677038
0.057446655 0.053456888 -0.05065641 -0.04928539 0.020577462 0.032378156 0.02378017 -0.052660774
-0.08407882 0.038391136 0.018947482 -0.008605825 0.007225025 0.04502099 -0.033317745 -0.031038186
0.07912703 -0.08789575 0.08580749 -0.07391239 -0.034932982 0.07977909 -0.06607178 -0.011993331
0.078355186 0.06746777 -0.050298445 -0.047822673 0.01784737 0.013055757 -0.04571857 -0.04992534
0.061566044 0.07770116 -0.06467174 -0.005222858 0.062336516 -0.059959546 -0.0097775385 0.020978583
-0.06538941 -0.030134508 0.00273093 -0.055390794 -0.03971046 0.059157494 -0.036533333 -0.070896514
0.052946698 0.010581559 0.022565536 0.0046855058 0.057018273 0.06943575 -0.0632329 0.072889514
-0.050994597 -0.035891123 0.06289559 -0.08685636 0.07150304 0.047243416 0.008419475 0.025963776
-0.077590734 0.087231696 0.031095691 0.063623175 -0.0528584 0.0484875 -0.055850767 0.02597016
-0.003985357 0.052750323 0.056088924 0.08620258 -0.03426584 -0.033558927 -0.06907321 -0.0573572
00000000: 0790 313d b790 d73c a909 493d cc0f 7abd
00000010: b6c8 adbd e865 0c3d 6d32 ac3d 1b9a 60bd
00000020: 419b 5bbd 2d95 c9bc 0d95 a83d 73eb cf3c
00000030: 3ad0 143d c513 a03d 53e4 80bd 6435 88bd
00000040: 122c 54bd 82b6 a13d 9ed0 86bd 3149 d63c
00000050: 57cf 163d 422f 893d 6497 3ebd 15d1 743d
00000060: 1335 fdbb d4cd 1d3b 67e6 95bd c65f 7dbd
00000070: 9e1b a5bc aac9 69bd c513 12bd a69d 483c
00000080: 9b40 703d 875d 123d 08b1 49bd 75d4 803b
00000090: 7a09 8cbd 17ba 4f3c 86b2 553d 46ab ec3c
000000a0: 8155 3cbd 1478 cbbc 4d30 693c cf9a 8ebd
000000b0: 47fa 143d 5946 3a3d def5 a6bd 4c83 afbc
000000c0: 7422 7ebd 9167 8e3d b5cd 0fbd 88e5 b13d
000000d0: 79ab 2e3d 1c81 c03c 2311 8e3d 65f5 5d3d
000000e0: 8e70 e03b 677b 9e3d c2f2 643d 8ecf 2a3d
000000f0: b06d f03c 2ae7 493d 8a33 0abd 7279 103d
00000100: b9bf 913c 5080 103d 8262 b33d c3d5 823d
00000110: 3778 6b3d 4eac df3c 1162 5f3d c415 a93d
00000120: e39e 813d 009f 223c ba0c 033d f156 083d
00000130: 4ac0 1fbd 4fa2 4abd ae12 34bd 8e6d a63d
00000140: ae5c ebbc 756a 54bd 8598 f7bc cf88 96bd
00000150: 93d9 533d c3a9 803d 60cb 07bd d542 aabd
00000160: c31e 9bbd c715 fc3a d1fb e5bc 31de 5f3c
00000170: a475 85bb 9284 513d 2257 983c 6a99 95bd
00000180: 1079 a53d 4256 8fbd dd33 adbd 7e48 8fbd
00000190: da78 b23b 8561 8c3c e1c7 253d 03db a53d
000001a0: b9f0 753c 64d2 b43d d8aa 68bc 3413 82bc
000001b0: e9d6 4abd feca e2bc 4ba3 85bd 6fc4 a9bd
000001c0: 7883 4a3c d0fb 993d aeb9 0a3d 3dda a7bd
000001d0: dd7c 723c ebb1 023d e8db a73d f93a 37bc
000001e0: 752e 90bd d5e4 033d f986 f6bc 6132 86bd
000001f0: 9b7e a83d 4f79 653d 16b7 67bd e443 3b3b
00000200: cf24 983d af94 5f3d c40b ca3c f798 8bbd
00000210: d8a2 14bd 7774 dc3c 5cc2 a0bd d8b7 a23d
00000220: 4001 86bd f02b 1abd a480 8f3d be1d 723d
00000230: c034 aabd ee68 573d b32c 9bbd bc15 a4bc
00000240: 3d3c 9bbd ab6c 9e3b c472 7bbc a99b 96bd
00000250: a07e 14bc bdac de3c 7f1f 393b 20c4 c63c
00000260: 4948 f1bb b6b7 a13d 4b9a 8c3c 43f1 213d
00000270: fcc4 adbd 5a7f 263b 72ae 9abd 3b16 cebb
00000280: b71c 383d 4b87 19bd 83e8 123d 500e 34bd
00000290: 58ad 793d b589 cd3c 7acb 1abd 9825 24bd
000002a0: 026b 51bd 0285 8f3d f50c 49bd e9d6 9abc
000002b0: 226e 7dbd 188d 9abb b25c 62bd 9b0d 64bd
000002c0: 2f4d 6b3d 9cf5 5a3d 197d 4fbd 7adf 49bd
000002d0: 1192 a83c f59e 043d a2ce c23c d3b2 57bd
000002e0: 8431 acbd 0640 1d3d c037 9b3c 72ff 0cbc
000002f0: e7bf ec3b ee67 383d 3078 08bd cb43 febc
00000300: 5a0d a23d b002 b4bd d6bb af3d 615f 97bd
00000310: e315 0fbd 3863 a33d a450 87bd ad7f 44bc
00000320: af78 a03d 8b2c 8a3d be05 4ebd b5e1 43bd
00000330: a634 923c d0e7 553c 6543 3bbd 837e 4cbd
00000340: ad2c 7c3d c921 9f3d 9e72 84bd 8224 abbb
00000350: 9354 7f3d 2498 75bd f831 20bc 47db ab3c
00000360: e2ea 85bd a5dc f6bc 67f9 323b 75e1 62bd
00000370: 6fa7 22bd 214f 723d faa3 15bd 3132 91bd
00000380: a3de 583d 465e 2d3c 5cdb b83c df88 993b
00000390: fe8b 693d 5534 8e3d 4080 81bd 1947 953d
000003a0: b6df 50bd 9202 13bd 67cf 803d bfe1 b1bd
000003b0: 3070 923d 5082 413d d6f1 093c fcb1 d43c
000003c0: e4e7 9ebd 88a6 b23d 64bc fe3c de4c 823d
000003d0: 0d82 58bd d49a 463d c6c3 64bd 5fbf d43c
000003e0: 9997 82bb b910 583d 80bd 653d fa8a b03d
000003f0: 565a 0cbd 1675 09bd 4176 8dbd 62ef 6abd
