retain/save/RETAIN_COV.pt (torch_old, 882982 bytes, 13 tensors)

emb f4 [41, 128]
000000 94 a5 fe 3d b4 a6 b4 bd 61 b1 d6 3d 59 f6 88 bd
       0.12433925 -0.088208586 0.10483051 -0.06687612
000010 cf a3 79 bd 59 b8 72 3d 77 ec a8 bd c2 1c 64 3c
       -0.060947236 0.05925784 -0.08248227 0.013922872
000020 81 9e 93 3c 98 e2 09 3d 01 3a 3b 3d ea 31 94 3c
       0.018019916 0.033663362 0.045709614 0.018090207
000030 bd e7 8c bd 8d a8 81 bd 42 46 20 3d e0 85 32 3d
       -0.06880138 -0.06330977 0.039129503 0.043584704
000040 fb 12 b9 bc 10 63 5e 3d 09 37 92 bd 4b 98 01 bd
       -0.022592058 0.054293692 -0.071394034 -0.03163938
000050 53 7b 36 bd 33 07 b5 bd ce 97 59 3d 08 77 38 bd
       -0.044551205 -0.08839264 0.053123288 -0.045035392
000060 18 ba b6 3c 5a 3b 57 bd ea 12 f8 3b c6 a3 88 3d
       0.022305533 -0.052546836 0.007570614 0.06671862
000070 be 7f a4 3c 23 4b 93 bc 40 52 96 bd f3 07 c6 3c
       0.020080443 -0.017980164 -0.07339907 0.024173712
000080 ab 42 c5 3d 03 3a 0b bd 5c 23 4d bd 3d c7 de bd
       0.096318565 -0.03399087 -0.05008255 -0.108778454
000090 c2 46 1f 3d ae 65 62 bd a4 49 2a bd cf ef 6e 3d
       0.03888584 -0.05527275 -0.041574135 0.058334168
0000a0 0f 1c 09 bd 22 08 25 bd 31 d0 a2 3d 38 ab 18 bc
       -0.033474024 -0.04029096 0.079498656 -0.0093181655
0000b0 c6 4a ca bd 99 7e ee 3d d5 1e b7 3d ea 02 dc 3d
       -0.09877543 0.1164524 0.089414276 0.10742743
0000c0 57 17 d8 bd 5e 65 db bc 85 72 8a 3d 25 46 00 3d
       -0.10551327 -0.026781734 0.06760124 0.031316895
0000d0 f4 c2 0f 3d 11 f6 17 bc 05 d2 bf bd 68 ab c0 3d
       0.03509803 -0.009274975 -0.0936623 0.09407693
0000e0 8a f7 8c 3c 2b 0f 7b bd c5 18 db bc ec be af 3d
       0.01720788 -0.061293762 -0.02674521 0.08581337
0000f0 74 e7 d7 bc d4 09 a7 3c af 99 d4 3d 04 40 00 bd
       -0.026355483 0.020390429 0.10380875 -0.03131105
000100 6d 7d 5c 3d f4 f5 97 bd 26 26 58 3d 32 9a 57 3d
       0.053830553 -0.07419959 0.052770756 0.052637286
000110 68 bd c9 bd dd f6 6a 3c a4 22 a7 3d ac f8 9c ba
       -0.098505795 0.014341083 0.08160904 -0.0011975965
000120 0c b3 c5 3c a6 86 60 bd ac 4d 48 bd ac 53 8c bd
       0.024133228 -0.05481591 -0.0489022 -0.06851897
000130 37 47 b7 bb b7 8f c8 3d d7 08 91 3c 89 49 5f 3d
       -0.0055932063 0.097930364 0.01770441 0.054513488
000140 92 df 46 bd e5 c9 2a bb 82 24 82 3d 9a ec 03 3d
       -0.048553057 -0.002606028 0.063546196 0.032208063
000150 1d 02 8f bc 21 fa 8d bd 7c 90 24 bc db d1 e8 3c
       -0.017457062 -0.06932474 -0.010044213 0.02842038
000160 8f 4f a1 3c e5 18 3e 3d 98 d2 a0 bc 17 70 0f 3d
       0.019691257 0.04641046 -0.019631669 0.035019007
000170 00 3e 5b 3d 76 e5 be bb 85 21 59 bd 1c a0 2d 3d
       0.053525925 -0.0058256937 -0.053010482 0.04238902
000180 03 00 0b bd 89 6c be bc 1e dd b2 3c dc a1 ad bd
       -0.033935558 -0.023245113 0.021833953 -0.08478138
000190 e3 5c a1 3c b6 12 9c bd bf 1f 88 bd 77 e3 ce 3d
       0.019697612 -0.07620756 -0.0664668 0.10101979
0001a0 2d d1 fe 3c 9e 17 86 bd 09 f8 85 3c df e8 2b bd
       0.031105602 -0.06547473 0.016353624 -0.04197013
0001b0 81 b1 5c 3d 41 12 dc bc 93 36 ef 3d 68 a8 96 bd
       0.05388022 -0.026864173 0.11680331 -0.0735634
0001c0 48 d9 33 bd 78 d2 f9 bb 0a 1a 0c 3c 34 fb 9f bd
       -0.043908387 -0.007623967 0.00855113 -0.07811585
0001d0 76 2d 12 3e 47 51 13 3d f7 23 71 bc eb 7f 8d bc
       0.14275154 0.035966184 -0.014718047 -0.01727291
0001e0 51 6d 02 3c 0f de a6 3c 95 8b 0f bd d4 ab 9a 3c
       0.007960633 0.020369558 -0.035045225 0.018880762
0001f0 41 05 54 bc 5d f0 82 3d ac bc dc bc 8a 7b 19 bc
       -0.012940706 0.06393502 -0.026945435 -0.009367833
000200 d3 67 05 3d 12 22 70 bd 86 74 9c 3d 87 33 f1 3b
       0.032569718 -0.058626242 0.076394126 0.007360879
000210 8a c6 2a bd 99 06 97 3d 99 dc 88 3c 99 8d f7 bb
       -0.041693248 0.07374305 0.016706752 -0.0075547216
000220 4c cb c2 3c 7c 35 46 3d 67 21 ea 3c 7d 52 11 3c
       0.02377858 0.04839085 0.02858038 0.008869764
000230 ef 0c 38 bc af 75 59 bd ff 1b 05 3d 9a cd 27 3d
       -0.011233552 -0.053090747 0.032497402 0.04096756
000240 7d a8 f0 3c 0f 0a f5 3c 11 90 9e 3d 43 c9 6a bc
       0.029377216 0.029912023 0.07742322 -0.014330211
000250 1f c5 f2 bb ff a3 8a bd d4 a9 86 bc a1 23 d9 bc
       -0.0074087526 -0.06769561 -0.016438402 -0.026506247
000260 35 a7 ba 3c e9 59 57 bb a4 5e a5 bd 6f 71 00 3d
       0.022784809 -0.0032859987 -0.08074692 0.03135818
000270 7c 1d 25 3d 45 76 2f 3c 4e 67 53 bd d2 0d 9b 3c
       0.04031132 0.01070935 -0.05161219 0.018927488
000280 86 77 07 3d 96 c8 a6 bc 75 1f 88 3d 15 79 ce bd
       0.03307297 -0.020359319 0.06646625 -0.10081688
000290 96 44 83 3c 14 4e b6 3a c5 e5 a3 3c 1b 40 39 ba
       0.016023915 0.0013908767 0.020007024 -0.00070667424
0002a0 93 35 57 3d f3 eb 41 3d 2a 9f 9c 3c 10 91 1b bd
       0.052541327 0.04734416 0.019118864 -0.03798014
0002b0 b4 e5 41 bd ae f8 12 3d b6 bc e3 bb 1a b1 0e 3d
       -0.047338203 0.03588169 -0.0069499863 0.034836866
0002c0 b1 9c b6 bc 14 e5 07 3c 08 a6 ff bc 27 b8 35 3c
       -0.022291513 0.008294363 -0.0312071 0.011091269
0002d0 7b 35 c9 3c 49 db b6 3c 90 ba 79 bd 8f 8e 6c 3c
       0.024561634 0.02232136 -0.060968935 0.0144382855
0002e0 5a a7 77 3d 90 d7 97 3d fb ea a4 3d 61 65 97 3d
       0.060462333 0.07414162 0.080526315 0.07392383
0002f0 65 af 12 3d d3 4b 37 bd b3 04 c8 3b e5 9d c5 bc
       0.0358118 -0.044750046 0.006104076 -0.024123142
000300 be a6 5b bd 11 14 94 bc 54 6d e8 3c 37 df 66 3d
       -0.053625815 -0.018075975 0.028372444 0.056365218
000310 1c 70 4f bd 6f 57 8c 3c 59 22 27 3d 09 6b 09 bd
       -0.050644025 0.017131535 0.04080424 -0.033549342
000320 75 ad 11 3d f5 fa 1e bd b2 4f a3 3d 6d 8a 18 bd
       0.035565812 -0.03881355 0.07974185 -0.037241388
000330 f1 7e e6 3b 48 4a 2b bd 88 6d 95 bd 28 40 ca 3c
       0.0070341756 -0.041818887 -0.07296282 0.024688795
000340 59 7f 36 3d 78 c1 68 bc db 6d 21 3c be 8f 9e 3b
       0.044555042 -0.014206283 0.009852852 0.0048389127
000350 52 66 bf bc 26 e4 63 bd 67 f4 94 3d b5 c7 c7 ba
       -0.02336422 -0.0556375 0.072731785 -0.0015242012
000360 94 00 59 bd 8c 97 43 ba 1d 7d 56 bc 02 e2 08 3c
       -0.052979067 -0.0007461242 -0.013091353 0.008354666
000370 19 51 fb bc 4c a0 24 bc b6 26 19 bb 5a da 69 bd
       -0.030678319 -0.010047983 -0.002336902 -0.057093002
000380 b0 74 b8 bb c3 2e 38 3a b3 9e 8d bc 20 28 8b bc
       -0.0056291446 0.0007026011 -0.017287588 -0.016986907
000390 d2 df c7 3d 0a fb 66 bd 38 fe e7 bc a7 74 48 3c
       0.09759487 -0.056391753 -0.028319463 0.012234843
0003a0 7a ec a0 bd 2e ae 1f 3c 61 f4 42 3d 49 3b a7 3d
       -0.07857604 0.0097461175 0.04759634 0.081656046
0003b0 0f f5 3c 3d 0c 50 20 3d c4 74 f3 3c f1 9a 34 bd
       0.046132144 0.03913884 0.029718764 -0.044093076
0003c0 6a 8e 24 bd 03 9a 99 3c 3b f3 92 bd 6d ef 74 3b
       -0.04017488 0.018750196 -0.07175299 0.0037374154
0003d0 11 72 40 3d 18 7e c7 bb 57 33 27 3d 36 2f a0 bb
       0.046983782 -0.0060880296 0.040820446 -0.0048884405
0003e0 0f 1f d3 3b a3 83 45 3c 01 da 54 3c d9 81 a0 3d
       0.0064429115 0.01205531 0.012991429 0.078372665
0003f0 05 c6 33 3d e1 d2 38 3d de 35 5a 3c 1b d7 e1 bc
       0.043890018 0.045122985 0.013318507 -0.02756839

rnn_module.gru.weight_ih_l0 f4 [384, 128]
000000 6b 6d 79 bd 3b 6b 2b bc af 1d 56 3d 96 82 b7 bc
       -0.060895365 -0.010462577 0.052274402 -0.022401135
000010 8f 40 89 bc 50 b5 0c 3c 83 44 85 3c b9 5a 94 3c
       -0.016754417 0.00858815 0.01626802 0.018109666
000020 5d f7 a3 3b 2b 82 7c 3c 5c f2 47 bd 55 eb 55 bd
       0.0050038532 0.015411894 -0.048815116 -0.052226383
000030 40 a1 b2 3d fd d5 ae bd 87 2a 35 bd d3 0b 9d bd
       0.08722162 -0.08536909 -0.04423001 -0.07668271
000040 c9 c7 25 3d 9a 04 32 3a 71 d1 23 bd 7d 91 8c 3d
       0.040473733 0.0006790847 -0.03999466 0.06863687
000050 2c 28 31 bc 0b ad 34 3d 90 a8 b4 3b cd 95 d1 bd
       -0.0108128 0.04411034 0.0055132583 -0.1023365
000060 c2 68 76 3d 6b 2e 18 bd 7c 48 15 3c 4b 7d 67 bd
       0.0601585 -0.037153643 0.00911152 -0.056515973
000070 56 e1 3b 3d e0 84 9a 3d 1a 8b 1e 3c 79 42 33 3d
       0.045869194 0.07544875 0.009676719 0.043764565
000080 8c 08 95 3d 13 08 af bc b4 3f 9c 3d 71 51 f8 3c
       0.07277021 -0.021366155 0.07629338 0.030312272
000090 e1 6c 37 3d 82 c6 b2 3d f7 9b 9f 3d e6 d6 10 3d
       0.04478157 0.087292686 0.0779342 0.035361193
0000a0 aa a6 a5 bd 14 88 76 bd fa e6 59 3d a8 cf 1f 3d
       -0.08088429 -0.060188368 0.053198792 0.039016396
0000b0 3b 72 58 bd 88 d7 7f 3b 82 da 90 bd e9 c1 78 3d
       -0.052843314 0.0039038379 -0.07072927 0.060731802
0000c0 87 2f fb 3c a9 75 8a 3d 07 19 33 bd 20 99 7f bd
       0.030662311 0.06760723 -0.04372504 -0.06240189
0000d0 bc ff 2d bd 78 80 28 3d 46 94 be bc 96 d7 3d bd
       -0.042480215 0.041138142 -0.023264062 -0.046348177
0000e0 c3 a7 3d 3d a3 02 36 bd d0 ff 83 3c 6c 65 f2 3c
       0.04630257 -0.04443611 0.016113192 0.029589377
0000f0 5d 55 15 3c 64 36 81 3a 59 e0 0c 3d 7f 17 5a 3c
       0.0091145905 0.0009858129 0.034393642 0.013311266
000100 d7 40 ca bc 14 35 8a bc d9 30 30 bc c1 39 1d 3d
       -0.024689121 -0.016871013 -0.010753834 0.038385157
000110 06 c2 84 3d ba ce 90 3d 79 c2 ef ba db 5e 2e 3d
       0.064823195 0.0707068 -0.001829221 0.04257093
000120 57 b7 9f 3d 23 8e 6a bc ce 6b 0a bc 20 c1 11 bd
       0.07798641 -0.014316115 -0.008448554 -0.03558457
000130 77 49 32 3c ff b5 55 3c 7a 23 56 3d 2e 53 6a bd
       0.010881773 0.0130438795 0.052279927 -0.057208233
000140 33 31 e1 3c 45 d6 9d bc ca 00 ec bc 56 26 3f bd
       0.02748928 -0.01926721 -0.02880897 -0.04666742
000150 52 ad a6 3c a2 65 18 3d 07 1c 73 bd 36 7b 10 3d
       0.020346317 0.0372063 -0.0593529 0.035273753
000160 6e 42 09 3c db f8 94 3d fe 82 19 3d aa 5f 9d 3c
       0.0083776545 0.07274028 0.03747844 0.019210655
000170 81 9d e4 bd 9a 8e dd bb bb cb 0a 3d 6c 25 68 3d
       -0.11162854 -0.006761384 0.0338857 0.056676313
000180 ce 76 24 bd fe 7b 52 bc 60 13 f6 3c 66 b3 31 3c
       -0.040152363 -0.012846945 0.030038536 0.010845995
000190 23 1d 1c 3d 8a 26 50 bd 2c c1 86 bc c5 66 97 3d
       0.038113724 -0.050818004 -0.016449533 0.073926486
0001a0 e6 4d be bd 22 54 4e 3d 31 d2 3e 3d 54 76 2e bd
       -0.09292202 0.050373204 0.046587173 -0.042593315
0001b0 3f bf 18 bd 42 aa df 3c 51 fb da 3c c3 62 f1 bc
       -0.03729176 0.027302865 0.026731165 -0.029466039
0001c0 0a 2a 09 3d e6 77 71 bc 0e 2f cf bc fc c8 a6 3d
       0.033487357 -0.014738059 -0.025290992 0.081438035
0001d0 8e 68 36 3d de ab 4d bd 10 76 7a 3d 56 4d 3b 3d
       0.044533305 -0.050212733 0.06114775 0.04572805
0001e0 10 fe 25 3c 89 e2 a8 bd 22 c3 9a 3d 46 09 9c bd
       0.010131374 -0.08246333 0.0755675 -0.07618956
0001f0 7e e6 44 bd b7 83 8d 3c 57 ea 0b 3d 5d ee 72 bd
       -0.048071377 0.01727472 0.03415903 -0.059309352
000200 31 23 14 bd 9d 06 b0 bc 34 4b 24 3d 22 20 84 3d
       -0.036166374 -0.021487528 0.04011078 0.06451441
000210 30 86 c4 3c 8e d8 57 bd 94 43 a6 3c ee 5e 56 3d
       0.023989767 -0.052696757 0.020295896 0.052336626
000220 ee f6 2b bd 04 0f 4a 3d 92 38 1c bd 0e 32 e5 3c
       -0.041983537 0.049330726 -0.038139887 0.02797797
000230 57 9d a3 bc e2 02 9f 3c 1c 6c d9 bc 52 51 62 bd
       -0.019972486 0.019410554 -0.026540808 -0.055253334
000240 20 f9 26 3d 8d c3 ea bc 9e f2 69 3c 98 be 78 bc
       0.040764928 -0.028657699 0.014279036 -0.01518216
000250 34 e6 75 bc eb 82 e4 bb 1e 70 8e bc 33 9e c7 3d
       -0.015008498 -0.0069736145 -0.017387446 0.09746971
000260 b5 d8 3a bc b4 7b 52 bd e3 5f d5 3b ae 1a 5b 3c
       -0.011404206 -0.051387504 0.0065116747 0.01337306
000270 4d d7 1f 3c bc e1 67 3d d4 d6 96 bd e3 87 3d bd
       0.009755922 0.05661176 -0.07365194 -0.04627217
000280 40 41 df bc de 2e 3a bd 7e 04 3f 3a 7c 0d da 3c
       -0.027252793 -0.045454852 0.0007286741 0.026617758
000290 06 23 14 3d 8c 80 2e bd 57 94 48 bd 17 ea 8b 3a
       0.036166213 -0.04260306 -0.048969593 0.0010674623
0002a0 36 44 75 3b 22 08 97 3c 3a fe e6 3c cb f3 a6 3c
       0.003742469 0.018436495 0.028197397 0.020379921
0002b0 19 d4 cd 3d 04 6d b0 3d 97 03 06 bd 28 01 59 3d
       0.1005022 0.08614543 -0.032718267 0.05297962
0002c0 b0 69 e4 bc ca 74 8d bc 6d e0 ff bb 7b e3 a8 bd
       -0.027882427 -0.017267603 -0.007808736 -0.082465135
0002d0 22 80 7d 3d 08 57 2f bc c5 6f 5d bd d3 b8 0d bd
       0.061889775 -0.010701902 -0.05406167 -0.03460009
0002e0 8f 98 59 bc 31 88 10 bd 3d 32 d6 ba 1d 1b 01 bd
       -0.013281002 -0.035286132 -0.0016341876 -0.031519998
0002f0 93 8b 7c 3d a2 2e 25 bd 95 e3 29 3d f5 e9 b4 3c
       0.061656546 -0.040327676 0.041476805 0.022084216
000300 0b 79 e2 bc 29 7c ff bb 32 42 db 3c ac 57 fe ba
       -0.027645608 -0.0077967835 0.026764963 -0.001940479
000310 2e 28 d4 b9 24 a4 76 3d 2a 68 a2 3c ae 8b 23 3d
       -0.00040465727 0.06021513 0.01982506 0.03992813
000320 4c 44 c5 3c 31 a5 79 3d 8f 9f c0 3d 70 97 95 3d
       0.024080418 0.060948554 0.094054334 0.07304275
000330 81 7b ef b8 c4 08 83 3d 2b 95 3c bd 9c 2b ab bc
       -0.000114194125 0.06398156 -0.046040695 -0.020894818
000340 a4 c0 1c 3d 08 db 28 bd 1e cc 43 bd be 4f 0b bd
       0.038269654 -0.04122451 -0.047802083 -0.034011595
000350 0e 40 0c 3c ca ef 65 3d a6 fa 1f 3c 93 b2 28 bc
       0.008560194 0.056136884 0.009764349 -0.010296482
000360 62 0d e0 bc 53 d3 23 bd 14 b7 fc bc 41 95 90 bc
       -0.027350131 -0.039996456 -0.030849017 -0.017649295
000370 e2 b9 27 bd b9 0d ab 3d fb b8 a7 3d 0a 30 05 bd
       -0.040948756 0.08352227 0.08189579 -0.032516517
000380 51 5d a8 bd d2 09 b9 ba 26 97 23 3d b8 df 97 3d
       -0.08220924 -0.0014117307 0.03993907 0.07415718
000390 83 dd 9b bc d7 f7 3b bd c4 31 1a 3d 20 44 b3 bd
       -0.019026523 -0.045890655 0.037645116 -0.08753228
0003a0 e3 bf f0 3c 4f 61 f9 bb 63 bf 66 bd 35 f7 7c bc
       0.029388374 -0.007610477 -0.056334864 -0.015439798
0003b0 9e b1 58 bb 9f b4 54 3c b3 91 3a bd 9e c2 2f 3d
       -0.0033064852 0.012982517 -0.045549106 0.04291021
0003c0 81 ea 14 3d 6b c7 bf bc c9 37 2c bc 6c fe a3 bd
       0.036356453 -0.02341052 -0.010511347 -0.080075115
0003d0 b1 55 08 3d b1 91 03 3d 79 34 80 bd ed 42 47 bd
       0.033284847 0.032121364 -0.06260008 -0.04864781
0003e0 e4 78 60 3d 63 13 b8 3d 46 67 8b bd e9 71 01 3c
       0.05480279 0.08988073 -0.06806807 0.007900693
0003f0 5b 53 6a 3d 61 fa 32 bb a9 26 e6 3c 50 b9 6f bc
       0.0572084 -0.0027309882 0.028094606 -0.014631584

rnn_module.gru.weight_hh_l0 f4 [384, 128]
000000 c8 23 02 bd 9d e0 c2 3d af 8c b6 3d 6b cb b2 3d
       -0.031772405 0.09515498 0.08913552 0.08730205
000010 c9 f6 b3 bd 39 b6 23 bd 06 8a 12 bd de 00 87 3d
       -0.08787305 -0.039968703 -0.03577616 0.06591962
000020 02 d4 16 3c a0 28 b9 3d f3 87 49 3d 9f 8d 91 bc
       0.00920582 0.09040952 0.049201917 -0.017767726
000030 1c 46 0c 3c 4a 7d 05 bd a9 a4 1b bc 26 08 6e bc
       0.008561637 -0.032590188 -0.009499707 -0.01452831
000040 d5 6d 74 3d 12 4e 77 bd 3b 41 76 3c 2c 1e 13 bd
       0.059675056 -0.060377188 0.015030201 -0.035917446
000050 78 59 29 bd d3 d1 68 3d c6 40 e4 bc c7 0d c2 3b
       -0.04134509 0.05684073 -0.027862918 0.0059220525
000060 19 4f f3 3c 77 57 60 bd cc a6 b5 bc a8 3b ae bd
       0.029700803 -0.054770913 -0.022174262 -0.08507472
000070 b5 d0 28 bd 1b 2a 1a 3c 2d ee a1 3c 96 47 30 3d
       -0.041214664 0.009409453 0.019766891 0.04303702
000080 57 3c 5b 3d a6 ae 0c 3d 34 cd 3b bc af 07 37 bb
       0.05352434 0.034346245 -0.011462498 -0.0027928164
000090 0e 59 08 3d 14 de 9c 3d 6b e3 bd 3c 7d f0 1c 3d
       0.033288054 0.076595455 0.02317973 0.038315285
0000a0 01 6c cd bc b4 4a 01 bd 98 51 76 3c 51 93 8f bc
       -0.025075914 -0.031565383 0.015034102 -0.0175263
0000b0 2e f8 8a bd fc f9 ee bc 2c e1 bf b9 6e 33 a1 3c
       -0.06785618 -0.029171936 -0.00036598125 0.019677844
0000c0 27 09 c1 bc 90 6c 14 3d 99 af de bc c8 6f 0c bd
       -0.023563934 0.036236346 -0.02718334 -0.03428629
0000d0 5c 11 01 3b 54 9e da bc 08 83 88 bd ce 26 fd 3c
       0.0019694185 -0.026686825 -0.06665617 0.030902293
0000e0 ac d2 6a bd 56 1d 8a bd 08 c1 84 bd 67 9f 77 bd
       -0.05732982 -0.06743877 -0.0648213 -0.060454752
0000f0 eb d6 b7 bd 2e 01 fd 3c f6 fb bc bd 9f 31 02 bd
       -0.08976539 0.030884352 -0.09227745 -0.031785604
000100 b5 a9 e0 bc 0e 67 b9 3a 3f 0a 97 bc d9 1b cb bd
       -0.027424673 0.0014145093 -0.018437503 -0.09917421
000110 61 75 4a bd 8e 2c a2 3c ea 6b 36 bd 54 36 4b bd
       -0.049428347 0.019796636 -0.04453651 -0.04961236
000120 c7 a3 6c 3d fa 5a 88 bd d4 71 07 bc 81 3e 63 3d
       0.057773378 -0.066579774 -0.008266885 0.05547953
000130 80 ab 8d 3c f1 14 1e 3d 97 d3 9d 3d ff af b9 bc
       0.017293692 0.03859419 0.07706373 -0.02266693
000140 40 25 19 3c 96 7c 2a bd b9 34 12 3c a8 b0 6a bc
       0.00934726 -0.04162272 0.008923703 -0.014324345
000150 85 16 5d 3d 50 a0 0c 3c 5a e8 a1 3d 9c 76 61 3d
       0.053976554 0.008583143 0.07905646 0.055044755
000160 b8 ae 6c bd 76 1e ad b9 ae 76 32 bd 92 bc 5f 3b
       -0.057783812 -0.00033019827 -0.043570213 0.0034139496
000170 7c 6a fe 3c 2c dc 8e bd f5 ce 84 3d 56 53 99 3d
       0.031056635 -0.06975588 0.064847864 0.07486598
000180 7a 8a bd bd 06 83 4e 3d 04 5e 54 3d ba 1d 18 bd
       -0.09254928 0.050417922 0.051847473 -0.037137724
000190 56 f3 09 bd d0 2a 44 3d 4c 00 da 3c 3e ce a5 3d
       -0.03367933 0.04789239 0.02661147 0.08095978
0001a0 be 12 e7 bb 49 ea 81 3b bb f5 26 3d 89 d8 d6 bc
       -0.007051795 0.0039646965 0.04076169 -0.026226299
0001b0 05 d2 9e 3d 4d 48 b7 bd fd c8 23 3c 3a 93 e2 bc
       0.07754902 -0.08949337 0.00999665 -0.027658094
0001c0 4b 78 32 3d ed af b0 bd 0c 50 34 bd 44 26 8e bb
       0.04357175 -0.08627305 -0.04402165 -0.0043380577
0001d0 2e a2 cc 3c 44 d4 60 bd 0b a3 ac 3d d5 5b 8a bc
       0.024979677 -0.054889932 0.084295355 -0.016889492
0001e0 18 d0 ea bb 2a 87 d2 3c 01 c5 db bc 61 d0 a8 3c
       -0.00716592 0.025699217 -0.026827337 0.020607175
0001f0 7e 2d 00 3d c3 47 3e 3d a9 98 51 bd 95 87 ac 3d
       0.031293385 0.046455156 -0.05117098 0.08424298
000200 80 02 73 bc 75 d7 8d bd db af 2b bd ea 6f bf 3c
       -0.014832139 -0.06925861 -0.041915756 0.023368794
000210 bc 02 59 3d c0 7a b1 3b a1 5f 0c 3c cf ca a9 3d
       0.052981123 0.0054162443 0.008567722 0.08290636
000220 e8 c4 8d 3d 18 67 18 3d cd e9 4d bd 95 c2 6f bc
       0.069223225 0.037207693 -0.050271798 -0.014633794
000230 45 b5 61 3b 77 67 5b bd 82 fd 4b bc 58 e3 7d 3d
       0.003444032 -0.05356547 -0.012450578 0.06198439
000240 72 32 a8 bb 37 63 20 bd dd 71 a0 bd e5 f2 c2 3b
       -0.0051329667 -0.03915712 -0.07834218 0.0059493654
000250 9b 71 b3 bd c7 e4 34 3d bf 02 7f bd 7b e0 67 3d
       -0.08761903 0.04416349 -0.06225848 0.056610566
000260 13 20 b5 3b bc 70 f6 bb 1c 05 b5 3c 3e 1a b8 bc
       0.005527505 -0.007520763 0.022097163 -0.02247345
000270 4e cd 17 bd 4b 0d 0f bd e7 a0 08 bc d4 c8 2f bd
       -0.03706103 -0.034924787 -0.008339143 -0.042916134
000280 7a ff 7a 3d b9 c6 0f bc 6e a2 7f 3c 16 3f 9a bb
       0.061278798 -0.0087754065 0.015602691 -0.0047072275
000290 5f e6 a1 3c c2 ff 02 bb 36 f5 8d 3d b7 91 1a 3d
       0.01976317 -0.001998887 0.06931536 0.03773662
0002a0 8a 0b 61 ba ed 58 83 3d 11 eb 44 3d 32 18 0b 3d
       -0.00085847883 0.064134456 0.04807574 0.03395862
0002b0 d1 03 c6 3a d9 f1 3d bd ca f0 48 bc a7 38 86 bc
       0.0015107339 -0.046373222 -0.01226444 -0.016384436
0002c0 65 c5 47 3d 54 ab 09 3d a7 83 81 bc dc 5c 8a bc
       0.048772234 0.033610657 -0.015809847 -0.016889982
0002d0 aa 56 bc bc df e7 49 bd d4 b3 ce 3d 35 f7 0d 3d
       -0.022990543 -0.049293395 0.10092893 0.034659583
0002e0 4e 3d 27 3d eb ee 4e 3d bc 31 95 bb 12 7c 5f 3c
       0.04082995 0.05052082 -0.004553048 0.0136404205
0002f0 48 9d 70 bd 3c eb 06 bb 62 56 fd 3c 13 f4 68 3c
       -0.058743745 -0.0020586988 0.03092498 0.014218348
000300 4b 7c 98 bc 7f 21 15 bd c4 42 11 bd 00 20 ad bb
       -0.018613955 -0.036408897 -0.035464063 -0.0052833557
000310 b2 3e c5 bb 44 7b 7b 3d 01 23 35 bd 24 ed 2a bd
       -0.0060194368 0.061396852 -0.044222835 -0.04173006
000320 d9 56 7f 3c 7c 5e 07 3c e6 1c c0 bc d4 e0 14 3d
       0.015584671 0.008262273 -0.02345128 0.036347225
000330 5f a5 5a bd ea fe 11 3d 4e b9 64 bd 41 2f 2a 3d
       -0.053380366 0.035643496 -0.055840783 0.04154897
000340 1b d5 8a 3d 1a 3e 5b bc 7a d4 ee bb 75 c8 3e 3d
       0.06778928 -0.013381505 -0.007288513 0.04657789
000350 4b fd 53 3d 91 24 0a bd c6 d5 97 3d bf 27 31 3b
       0.05175523 -0.03372628 0.07413821 0.0027031747
000360 4f 17 0d 3d e7 9c 6c 3d 24 89 98 3d 8e 68 1c 3d
       0.034446057 0.05776682 0.074480325 0.03818565
000370 c7 ad 9f bb 26 9e 68 bc 1c 62 35 bb f4 a5 00 3d
       -0.004873011 -0.014197862 -0.0027676886 0.031408265
000380 04 d5 59 3d 5e b3 9e bd b5 4c dc bb 41 b7 82 3d
       0.053181663 -0.07749055 -0.0067230114 0.06382609
000390 3d e0 0b 3d 34 5e 2c bc 48 6f 98 3d 66 08 8b 3d
       0.034149397 -0.010520507 0.074431 0.06788711
0003a0 c9 16 32 3d a4 bf 50 bd 84 a1 e3 3c a1 03 5c 3d
       0.04347876 -0.050964013 0.027786978 0.0537144
0003b0 01 e2 63 bc 59 a7 91 3d 30 02 da bc 84 b1 7b bd
       -0.013908864 0.07111997 -0.026612371 -0.06144859
0003c0 36 9f d2 bc f6 f2 41 3d 64 62 56 bb cc 51 31 bd
       -0.025710683 0.047350846 -0.0032712454 -0.0432909
0003d0 45 e0 d2 bc b5 b0 d3 bc 03 ae 5c bd b2 7d 6b bc
       -0.025741706 -0.025841096 -0.053876888 -0.01437323
0003e0 b4 94 c9 3c 52 1e 43 bc f9 e2 f4 bb 63 21 3b ba
       0.02460704 -0.011909084 -0.0074733463 -0.0007138459
0003f0 6f 8a 96 3d 13 73 87 bc d7 4f 9a 3c 05 1d 4f bd
       0.07350623 -0.016534364 0.018836899 -0.050564785

rnn_module.gru.bias_ih_l0 f4 [384]
000000 f3 fe e6 3d b7 cb 1f bc fa 20 b0 3d 42 07 42 3d
       0.112790965 -0.009753159 0.0860004 0.047370203
000010 54 4f 3c 3d 50 3e 3f bd 1b 6d e1 3b 0d 12 a6 bc
       0.04597409 -0.046690285 0.0068794615 -0.02027228
000020 ce 71 3d 3d a0 4a 44 bd 93 d6 83 3d 26 52 af 3b
       0.04625111 -0.04792273 0.06437411 0.005350369
000030 17 41 04 bd 07 fc 41 bd bc d9 4a bc b6 93 25 bd
       -0.032288637 -0.047359493 -0.0123810135 -0.04042407
000040 0c 8f a3 bd 33 c8 96 3c 3d 99 b8 bc 4f ef 19 3b
       -0.079862684 0.01840601 -0.022534007 0.0023488586
000050 ae 77 44 3b d6 3f 0e 3d f9 90 8f bd 32 dd 2e ba
       0.0029978561 0.034728847 -0.07010073 -0.0006670534
000060 61 ea 26 bd 07 86 1e 3c 73 dc 28 3c 06 d3 ea 3c
       -0.040750865 0.009675509 0.010306465 0.028665077
000070 fe bb a6 bd 1a eb 36 3d d6 ee 13 3d c6 be 40 bd
       -0.081413254 0.044657804 0.036116444 -0.047056936
000080 2d df 18 bd d3 d4 7e 3d 9e 87 5f 3c 21 3a 95 3c
       -0.037322212 0.062214684 0.0136431735 0.018216195
000090 38 d4 82 3d ca 69 28 3d 4c 6b d6 bc 7d 48 06 bd
       0.06388134 0.041116513 -0.02617421 -0.032783974
0000a0 4a f3 09 3d 71 38 3e 3c 36 7f 82 3d 73 df 83 bd
       0.033679284 0.011610136 0.0637192 -0.06439104
0000b0 0c 51 ae 3c 3f c5 ff bc 70 3c 5a bd 7b f2 1a 3d
       0.02127888 -0.031221984 -0.053280294 0.037828904
0000c0 6d 08 32 bd 3a 26 12 3c 0a 71 6b 3d 27 bd 9e bd
       -0.043465067 0.008920247 0.05748085 -0.07750922
0000d0 f1 4e 9c 3d 40 c2 b1 3c e9 a4 50 3b 75 14 a2 3d
       0.076322444 0.02169907 0.0031836575 0.07914058
0000e0 a8 77 26 3d e9 0f 9b bd 13 bc 17 3d 34 62 19 bd
       0.040641457 -0.07571394 0.037044596 -0.03744717
0000f0 4d 94 41 bd f5 bd 05 3d 28 e8 1f bd 47 ae 4f 3d
       -0.04726057 0.03265186 -0.03903976 0.050703313
000100 0b 2d 25 3d a0 c0 4b 3d b9 f3 80 bd 84 dd 0a 3d
       0.04032616 0.04974425 -0.062964864 0.03390266
000110 d0 a3 65 3d 39 3a fb 3c bc c8 19 bd 48 51 83 bd
       0.056064427 0.030667411 -0.03754495 -0.064119875
000120 a6 9e 7f 3d 1a 06 75 3c bb e3 8e 3d ea 04 61 3d
       0.06240716 0.014955068 0.0697703 0.054936327
000130 00 40 4d bd 1e d0 d0 3c 78 de f6 bc 73 5f 82 bd
       -0.050109863 0.025489863 -0.030135378 -0.06365862
000140 17 3c 69 bd ce b6 68 3d ed 6c 6c 3d 4c 28 3d bc
       -0.05694207 0.05681496 0.057721067 -0.011545252
000150 e9 8c 6a 3d 5c fa 6d 3d c9 eb a5 3c e0 28 05 b9
       0.05726329 0.05810009 0.020254033 -0.00012699096
000160 9c ef 47 3d 7c d2 22 bd 1f 93 2f 3d 70 1c 04 bd
       0.048812494 -0.039751515 0.042864915 -0.032253683
000170 b0 8c 30 3d 1a 66 bb bd e6 9a 11 bd d5 0d 96 3d
       0.04310292 -0.09150334 -0.035548113 0.07326857
000180 61 ec d1 bc d7 b7 13 3d a0 ca 5d bd 2d 24 6e 3d
       -0.02562541 0.036063995 -0.054148316 0.05813997
000190 d8 14 43 bd 09 67 f9 3c f2 dc 3b bc 55 08 a5 bd
       -0.0476273 0.030444639 -0.011466252 -0.0805823
0001a0 e5 17 2d 3d 54 c3 2e 3c 20 0c 8f 3b d1 f5 e9 3c
       0.042259116 0.010666687 0.004365459 0.028559597
0001b0 99 2a 6c 3d bc a3 12 bd 51 cc ac bc 70 66 16 3d
       0.05765781 -0.03580068 -0.02109352 0.036718786
0001c0 ea 5d e9 bc 6c f4 86 ba 32 e2 d6 3c 8b fc cc bd
       -0.028487165 -0.0010296232 0.026230905 -0.10009106
0001d0 1a 59 f6 bc af 27 70 bd 12 82 7a 3d 25 79 6e bc
       -0.030071784 -0.058631595 0.0611592 -0.01455525
0001e0 b4 6b c3 bd 59 d2 cb 3d 3c f8 44 bd 84 c5 a2 3c
       -0.09542027 0.0995223 -0.048088297 0.019869573
0001f0 2e ad 8a bc e5 64 20 bd f0 0b 14 bd 9d 9f f4 ba
       -0.016928282 -0.03915872 -0.036144197 -0.0018663291
000200 2d 60 36 3d 2b fd 96 bd 4a 9c 3a 3d 10 4d 3a bd
       0.044525314 -0.07372507 0.045559205 -0.04548365
000210 c5 b8 15 3d eb 82 b7 bc 1c f1 9c 3d a2 d8 86 bb
       0.036553163 -0.022401294 0.076631755 -0.00411518
000220 38 3c 79 bd 2c 01 0f 3d 2b 4c 6f bb c7 a3 a2 3d
       -0.060848445 0.034913227 -0.0036513906 0.07941394
000230 33 f7 05 bc 0a 6d 08 bd a4 bd 9a 3c 72 38 01 3c
       -0.008176613 -0.033307113 0.018889256 0.007886993
000240 87 56 71 3d ed c8 5c bc c9 e7 0e 3d 02 93 9f 3c
       0.05892041 -0.013475639 0.034889016 0.019479278
000250 d0 97 85 3d c2 44 2b 3c 75 59 28 bd 2d 4a 8b bd
       0.065230966 0.010453405 -0.041100938 -0.06801257
000260 62 8e 94 bc ea 67 8a bd f3 4d 74 3d 74 10 b5 bd
       -0.0181343 -0.06758101 0.05964465 -0.08841029
000270 e5 a3 4f 3d 1d 1d 4f 3c b4 95 46 bd 51 a0 23 bd
       0.05069341 0.0126412185 -0.04848261 -0.03994781
000280 39 3e ca 3c 67 d7 19 3d b2 ad 00 bd 95 8b 18 3d
       0.024687873 0.03755894 -0.03141565 0.03724249
000290 9c 4f e4 bd ad 7d ac bc 53 69 6e 3c c0 c0 8d 3d
       -0.11147997 -0.02105602 0.014551478 0.0692153
0002a0 95 99 b1 3c 1f b4 64 3d b6 5b 82 bd a4 bf f7 3c
       0.021679679 0.05583584 -0.06365149 0.030242749
0002b0 83 26 e2 bd 64 e8 ca 3d cc 37 0a bd 15 70 be 3d
       -0.11042502 0.09907606 -0.03374462 0.09298722
0002c0 48 17 8c 3d 55 42 50 3c db 2e 36 bc e9 73 57 3d
       0.06840378 0.012711127 -0.01111957 0.052600775
0002d0 74 e9 9f bd e4 52 85 3d dd 45 39 3c 7c 99 79 3d
       -0.078081995 0.06509951 0.011308161 0.06093739
0002e0 73 54 94 bd 0e 30 a9 3c f4 9f 03 3d 88 00 95 bd
       -0.0724267 0.020652797 0.032134965 -0.07275492
0002f0 74 51 ff 3c 6c df da bc 55 d0 cd 3c e2 74 d1 bd
       0.03116677 -0.026717864 0.025123755 -0.10227372
000300 f1 52 43 3c 9d 2f c9 bb b1 2f 27 3d 96 4d 30 3d
       0.01192163 -0.006139709 0.040816966 0.04304274
000310 f1 af 8b ba 20 2d 23 3d c3 a3 5b 3c 8c 75 13 3d
       -0.0010657293 0.039837956 0.013405743 0.036000773
000320 c2 3f 76 3d bd 6b 5c bd 72 a5 b3 3d 5d 27 f6 bc
       0.060119398 -0.053813685 0.087717906 -0.030048067
000330 7e 02 31 3c 23 64 28 bd fc ba 4f bd 64 99 a4 bb
       0.010803817 -0.041111123 -0.05071543 -0.0050231684
000340 d5 f0 30 bd d0 8c 12 bd 0d d9 ab 3c f1 9d 15 3d
       -0.043198425 -0.03577882 0.020977521 0.036527578
000350 c7 e6 5e bb aa 07 8c bd b4 d8 a5 3c d2 3a 97 3d
       -0.0034012066 -0.06837399 0.020244934 0.07384266
000360 cb 92 8b 3c 45 35 91 3d 2c 1f d7 3c e5 12 a9 3c
       0.01703777 0.070902385 0.026259981 0.020638892
000370 a5 e1 44 bd b4 2f 40 bd 4c 4a a7 3d d0 a0 87 bd
       -0.048066754 -0.046920493 0.08168468 -0.066224694
000380 ee 30 da 3c b6 b7 46 bd 33 bc aa 3d 6f 75 1c bd
       0.02663466 -0.048515044 0.083366774 -0.03819793
000390 d5 e5 dc bc 1a a7 58 3d 93 2d d3 bd 49 aa 88 bd
       -0.026965061 0.052893735 -0.10311427 -0.06673104
0003a0 f1 b9 82 3d 1d 31 33 ba 5e d9 27 3d 5c 3d b9 bc
       0.06383122 -0.00068356266 0.040978782 -0.022612266
0003b0 ec be 6c 3d 49 1b 1c bd e6 66 39 bd 81 6e c0 3a
       0.057799265 -0.03811196 -0.045264147 0.001468137
0003c0 6e 00 7d 3d f1 29 44 3d 2a c6 40 bd e8 02 72 3c
       0.061767988 0.04789156 -0.047063984 0.014771201
0003d0 56 f3 90 3d 3f e4 f3 bb bf 13 21 bd 5e 1c c8 bc
       0.07077663 -0.0074429805 -0.039325472 -0.024427589
0003e0 2c ca bb bd 17 c2 de 3d ef a1 80 bb f5 48 54 bc
       -0.091694206 0.108768634 -0.003925554 -0.012956847
0003f0 80 66 a1 3d 88 09 52 bd 91 cd 5e 3c 0f f4 be bd
       0.078808784 -0.05127862 0.013598816 -0.09323894

rnn_module.gru.bias_hh_l0 f4 [384]
000000 ff 58 d4 3c cf 77 62 bd f0 f6 13 3d d9 80 56 bd
       0.025921343 -0.05529004 0.03612417 -0.052368972
000010 30 2d b6 3d 92 a0 63 3d bd 4e f4 39 65 26 31 bd
       0.088953376 0.055573054 0.0004659797 -0.043249507
000020 4a e8 07 3d 5d fb 5f 3d 08 ab 9f bd f4 9d 44 bd
       0.033180512 0.054683078 -0.077962935 -0.0480022
000030 7c b0 36 bb 8d 5a 00 3d 47 1d 0e 3d 89 f0 41 3d
       -0.002787619 0.031336356 0.03469589 0.047348533
000040 d1 71 b3 bd 9f 58 04 bd 31 92 77 3c 7d 13 5f bb
       -0.08761943 -0.03231108 0.015110538 -0.0034038716
000050 eb 1a 4f 3c b9 51 ec bc 53 7b c0 bb f7 78 8a bd
       0.012640695 -0.028847562 -0.0058740764 -0.067613535
000060 90 e5 51 bd 77 87 e7 3c 6a 19 79 bd af d2 15 bd
       -0.05124432 0.028262837 -0.060815252 -0.036577877
000070 08 ee 75 3d 64 cd 12 3d 73 34 82 bc d1 bf 5b 3d
       0.060041457 0.035840407 -0.01589415 0.053649727
000080 c5 20 5f bc a7 8d 2b 3c 02 1b ea 3c b5 c3 a8 bd
       -0.013618653 0.010470784 0.028577331 -0.08240453
000090 14 00 c8 bc 4d 51 43 bd 0e 4d 9f 3d 5e e7 7b bd
       -0.0244141 -0.047684956 0.07778369 -0.061499946
0000a0 86 72 5b 3d 9d 92 c0 bc be 26 21 bb d7 1f 7f bd
       0.053576015 -0.02350741 -0.0024589743 -0.062286224
0000b0 a5 52 7e 3d 32 09 ac 3d cd 3e 20 bd 81 07 81 3c
       0.062090535 0.08400191 -0.03912239 0.015750648
0000c0 29 52 59 bd 14 57 f2 3c 6c fd 36 bb 83 11 bb b9
       -0.05305687 0.029582538 -0.0027922047 -0.00035680467
0000d0 4b 7a 57 3d 91 07 0d 3d 56 14 e6 bb 21 31 5e bc
       0.052606862 0.034431044 -0.007021467 -0.013561518
0000e0 33 6b 86 bd 15 71 66 3c 66 15 63 3c d3 83 28 bd
       -0.065634154 0.014065047 0.013860082 -0.041141342
0000f0 df 62 a1 3d 57 96 7b 3d cd 96 fa bc 35 2f 13 3d
       0.07880186 0.061422672 -0.030589486 0.035933692
000100 05 18 ab bc 33 cc 97 bc 92 78 30 3d 70 f1 0c 3d
       -0.020885477 -0.018529987 0.043083735 0.03440994
000110 01 3f c9 3c 7b 12 ad bd 12 76 23 bd 66 7e 85 3d
       0.024566175 -0.084507905 -0.039907522 0.06518249
000120 ea 9d 33 bb a8 f2 4a 3b b7 7d 63 3c 3f c2 4a bc
       -0.0027407357 0.0030967388 0.013884953 -0.012375413
000130 23 04 b8 3c 1e 2a 78 3d 60 b0 cf bc 3b d4 2f 3c
       0.02246291 0.06058704 -0.025352657 0.010731752
000140 0f 0b 3c bc 28 55 4d 3d 08 85 1d bd cd 74 f6 ba
       -0.011477246 0.05013004 -0.038456947 -0.001880312
000150 de 2b 9b 3c d9 00 d3 3c f9 dc 62 bd 74 06 b9 3d
       0.018941816 0.02575724 -0.055386517 0.09034434
000160 9d e4 32 bd d1 9c 03 bd 7c 31 25 bd 13 2a c5 3b
       -0.043675054 -0.032131974 -0.040330395 0.0060169785
000170 15 2e 1a bd 4b 48 06 be 44 87 16 3d 3b 4b 17 3d
       -0.037641603 -0.13113515 0.036750093 0.03693698
000180 66 b4 2d 3d c6 f0 d6 bc 53 88 49 bb 8b d9 65 3a
       0.04240837 -0.026237857 -0.0030751422 0.0008768073
000190 7a 1b bb 3d 3e 34 52 bd 18 b8 38 3b 7c 33 d0 3b
       0.091361 -0.051319353 0.00281859 0.0063537937
0001a0 f9 f4 8d 3d 38 56 d2 bc 83 0d 05 bd 43 54 95 3c
       0.069314905 -0.025675878 -0.03248359 0.018228656
0001b0 a0 be 38 bd 5f b0 0b bc d8 52 63 3d 75 5f 0f bd
       -0.04510367 -0.008525937 0.055498928 -0.035003144
0001c0 ce 16 15 bd ef 39 87 3d 31 3e 11 bd 74 7e 6d bd
       -0.0363987 0.06602847 -0.0354597 -0.057981923
0001d0 9e 88 3a bd 72 2c 0b 3d 0a 09 a6 bc aa ef 61 3b
       -0.045540445 0.033977933 -0.020267982 0.0034475126
0001e0 3e 04 33 3c 5d 2a c3 3d 36 f7 33 bd ce 99 2d bd
       0.010926304 0.095295645 -0.04393693 -0.042383008
0001f0 2b df c9 3c 88 06 b9 3d ad b7 83 3d a0 b0 32 3d
       0.024642548 0.09034449 0.06431518 0.043625474
000200 a7 01 78 3d 5a 45 3d bc 2d 1c a1 3d 31 de 89 bd
       0.06054845 -0.011552179 0.07866702 -0.06731833
000210 59 27 9b 3c 28 07 d2 bd 2f 51 cc 3d cf fc 0d 3d
       0.01893966 -0.10255271 0.09976422 0.034664925
000220 27 66 35 3d 37 0c 3d bd 70 2d 32 bd 29 96 02 bd
       0.044286873 -0.046154227 -0.043500364 -0.031881485
000230 1f ef 2f bc 27 c0 af bc df 75 3a bb 3e ef 23 bb
       -0.010738163 -0.02145393 -0.0028451604 -0.0025014426
000240 90 3f ac bc 68 8f 74 bd 4b 95 94 3b 23 cf 57 ba
       -0.021026403 -0.059707075 0.0045343987 -0.0008232465
000250 f8 36 78 bd 04 c3 9a 3d 29 95 05 bd cb 6e 26 3c
       -0.060599297 0.075567275 -0.032612953 0.010158251
000260 7e 9a 44 3b fb cf 5c bd 69 ee 4a bd be fe c1 bd
       0.002999931 -0.053909283 -0.049543772 -0.09472416
000270 1a ae bb 3d 7d 7c 03 3d 0b c0 e5 3c 10 82 40 3b
       0.091640666 0.032101143 0.028045675 0.0029374398
000280 d6 f3 ab bd 3a 8a 85 bc 2d 35 e7 bd a4 d3 3f bd
       -0.083961174 -0.016301263 -0.11289439 -0.046832696
000290 21 dc ec bc ab f9 2d bd b2 47 0d bc b4 f1 53 3d
       -0.02891356 -0.04247443 -0.0086230505 0.051744178
0002a0 5d ee 40 3d 8e 26 3f bd 05 79 2a 3d bc 4f b5 bd
       0.04710232 -0.046667628 0.04161932 -0.08853099
0002b0 7d 27 9e 3c e6 8d 7a 3c bb 8f 7e bd 50 be ae bb
       0.019305939 0.01529262 -0.06214879 -0.0053327456
0002c0 b1 dd 9d 3c 8b 04 7a ba 53 b4 69 3d 5d 04 99 3d
       0.01927075 -0.000953742 0.057056736 0.07471535
0002d0 fa 5a 04 bd ee d2 87 bd 84 24 ea 3c 07 e2 34 3d
       -0.032313325 -0.066320285 0.028581865 0.04416087
0002e0 31 12 eb bc c9 1e 0c bc c6 a5 2a bd c4 73 8a bd
       -0.028695198 -0.008552262 -0.041662 -0.06760362
0002f0 68 d0 44 3c 70 77 b4 3d 64 37 ca bd 02 f6 57 bd
       0.012012579 0.088118434 -0.09873846 -0.052724846
000300 4b 8c e1 bc 5d b1 75 3d 3c 0e 88 3c 8b ed 8e 3c
       -0.027532717 0.0599836 0.01660835 0.017447254
000310 bb 9b d9 3c cd b7 59 bd b2 79 62 ba ef b7 a3 3d
       0.026563516 -0.0531538 -0.000863935 0.07994067
000320 e2 da 4f bc 49 49 ba 3c b7 c6 e2 bc 84 17 5e 3d
       -0.012686463 0.022740023 -0.027682645 0.054221645
000330 9a cb a8 bd 59 73 96 3d 9c a6 42 3d a3 c1 9b bd
       -0.08241959 0.073462196 0.047522172 -0.07605293
000340 4e cb d2 3d 3f eb b8 bc 97 4b 01 3d 0b 52 04 3d
       0.102926835 -0.022573112 0.03156623 0.032304805
000350 3f bc ef 3c e8 ac 20 3d dc 16 aa bd c5 bb 97 3c
       0.029264567 0.039227396 -0.08305141 0.018522153
000360 0f 27 da bc ef f6 1e bd 41 bd df bd 1f 2b 19 bc
       -0.026629953 -0.038809713 -0.10924769 -0.00934866
000370 da a2 c1 3d f1 88 0a bd c2 71 2c bd cc 26 bd bd
       0.094548896 -0.033822004 -0.042100675 -0.092359155
000380 bb 8d b9 bc 9e bb 0b bd 12 7f 7d 3d 39 98 12 3d
       -0.02265059 -0.034114473 0.06188876 0.035789702
000390 db 2f 7a 3d 76 1e b0 bc c3 06 b9 bd 8e a6 67 3c
       0.061080795 -0.0214989 -0.09034493 0.014138831
0003a0 b6 62 32 3d 69 d8 46 3b 54 7d 88 bd 64 14 96 3d
       0.04355117 0.0030341393 -0.066645294 0.07328108
0003b0 f1 b3 68 3c 2f ef 5d bd 45 b0 a9 3c 41 1b 7f 3d
       0.014203058 -0.05418318 0.020713935 0.06228185
0003c0 e4 ac bb 3d c3 de cc bc 99 b8 ae bc 23 94 8f 3d
       0.09163836 -0.025008565 -0.021328257 0.07010677
0003d0 c9 7e 99 bb ec 86 bb bc fd a8 21 bd cb 6c ec bc
       -0.0046843034 -0.022891484 -0.0394678 -0.02886047
0003e0 78 35 8c bd 9c ef 66 bb 38 e3 a5 bd 58 ce 41 bd
       -0.06846136 -0.0035238033 -0.08099979 -0.047315925
0003f0 ab 04 87 3d d2 91 39 bc e7 ed 5f bd 48 0a 45 3d
       0.06592687 -0.01132627 -0.05467024 0.048105508

rnn_b_module.gru.weight_ih_l0 f4 [384, 128]
000000 43 3b 3b 3c da d5 a2 b9 58 f7 8a 3d 64 3b 25 3c
       0.011427703 -0.0003105838 0.06785458 0.010084961
000010 5e a3 31 3d d8 f2 83 3d 2f a9 57 3d 72 49 50 3d
       0.04336869 0.06442803 0.05265158 0.050851293
000020 66 85 d2 bb 11 16 bb bd df 88 0d bd 61 d1 1a 3c
       -0.0064245937 -0.09135068 -0.03455436 0.009449334
000030 59 26 59 3c 30 f5 ce bc f1 94 3e bd 7c 66 3d 3d
       0.013253772 -0.025263399 -0.04652876 0.046240315
000040 f7 4f 58 3c 7d 49 1a bd ba d0 79 3c 28 4c 0d bd
       0.013202659 -0.03766774 0.015247518 -0.034496456
000050 1c b5 21 bd 25 5f 72 3d 7a ff 15 bd 72 55 50 bd
       -0.03947936 0.05917277 -0.036620595 -0.050862737
000060 60 e6 92 bc ac 22 95 bd b2 f9 ac 3d 3b 1a 5e bd
       -0.017932117 -0.07282004 0.08446063 -0.054224234
000070 9c 92 0b bd be 89 20 bd eb 95 9c 3c c2 01 22 bb
       -0.034075364 -0.03919386 0.019114455 -0.0024720286
000080 48 d1 2c 3c a9 b4 93 ba 09 60 8e bd 34 37 ce bb
       0.010547943 -0.0011269051 -0.06951911 -0.006293202
000090 38 18 ff bc 20 16 db bb 46 c3 19 3c 90 ac 9b 3b
       -0.031139478 -0.006685987 0.009384936 0.0047507957
0000a0 08 62 92 bd 10 a9 95 3d c4 c9 86 3d ed 78 9d 3d
       -0.07147604 0.07307637 0.065814525 0.076890804
0000b0 2a 36 52 3d 6a b8 30 bd 9f 16 79 bd 14 c9 16 bd
       0.051321186 -0.04314462 -0.06081259 -0.036812857
0000c0 b5 a9 a2 3d 73 55 7c bd 2e 8a cf bc a6 51 26 bc
       0.07942525 -0.06160493 -0.025334444 -0.010151302
0000d0 eb c0 9a 3d 77 06 9f bd 58 1c ae 3d b3 93 37 3c
       0.075563274 -0.07764905 0.085015 0.011204648
0000e0 f8 ba 5b bd b3 3c 3b bd b7 57 43 3c 16 8b 34 bd
       -0.053645104 -0.045712184 0.011922768 -0.044077955
0000f0 46 00 9a bd 05 0a 2d bc a5 e8 62 3d ca 54 a3 3d
       -0.075195834 -0.010561471 0.05539765 0.079751566
000100 c1 f2 3a 3d aa 4d 5f 3c 91 90 7b 3d af 04 56 3d
       0.045641664 0.013629356 0.061417166 0.05225056
000110 76 98 25 3d ee cf b9 3c 76 14 57 bd 51 12 b1 3d
       0.0404286 0.022682156 -0.052509747 0.08646072
000120 77 e9 1d 3d b2 0e aa 3b d4 37 b2 3d 70 a6 60 3d
       0.038552728 0.00518974 0.087020546 0.054846227
000130 75 09 76 3d 33 27 ad bd 54 4c 19 bd 7d 54 a8 3c
       0.060067613 -0.08454742 -0.037426308 0.0205481
000140 68 f9 e5 3c 14 32 f8 bc a3 51 52 bd 24 e5 91 3d
       0.028073028 -0.030297317 -0.051347386 0.07123783
000150 7f 93 3c bc fe 2d a1 3d f4 d0 a9 3d 6e 37 da 3c
       -0.011509775 0.078701004 0.08291808 0.026637759
000160 a0 84 bd 3d 05 cd b4 bd f4 c5 26 3d a4 be c0 3b
       0.09253812 -0.08828167 0.040716127 0.005882101
000170 5a 6e c3 bd 02 5b c4 3c 32 7f 2f 3d a5 81 45 bd
       -0.09542532 0.023969177 0.042845912 -0.04821934
000180 b4 a4 88 3d 40 c6 13 3d c4 02 39 bc 4f 12 b0 3b
       0.0667204 0.036077738 -0.011292163 0.0053732763
000190 c6 d5 b4 3d 6c 27 17 3d ad 49 18 bd d3 8d 98 3d
       0.088298365 0.03690283 -0.037179638 0.07448926
0001a0 57 67 76 3d 3e b8 8a bc 9b 8b 74 3c 7a f3 ae bc
       0.060157146 -0.016933557 0.014925863 -0.021356333
0001b0 9d 18 90 3d 77 69 b9 3c 6e 79 5a bd b1 b9 f8 3b
       0.070359446 0.022633297 -0.05333846 0.0075904955
0001c0 c7 c8 7a bd 67 54 30 bd 98 e2 4c 3c bb 84 75 bc
       -0.061226632 -0.043049242 0.012505196 -0.014985259
0001d0 98 55 cb 3c c6 c9 49 bd 8c 19 28 3d f2 ad 99 bd
       0.024821088 -0.04926469 0.04103999 -0.075038806
0001e0 aa 2e a2 3c 57 45 9f bd 43 4f 44 3c 36 87 6b bc
       0.019797642 -0.077768974 0.011981788 -0.0143754985
0001f0 e7 8b 15 bd 4e ae 74 bd 5f 68 9f bd 1e 58 41 3d
       -0.036510374 -0.059736542 -0.07783579 0.047203176
000200 a1 c8 cb 3c 59 6c 34 bd 97 17 84 3d 0a 5c 9d bc
       0.02487594 -0.04404864 0.06449812 -0.019208927
000210 d6 64 da 3c 17 0f 76 3b ac c8 85 b9 08 f5 7b bd
       0.02665941 0.0037545615 -0.0002551725 -0.061512977
000220 c4 17 87 3c 73 1c ad bd 01 2e 07 bd 30 31 ae 3c
       0.016490825 -0.08452692 -0.033002857 0.021263689
000230 5a dc 0e 3c 56 0c e2 3c 04 7e 8d bd 9d 10 7c 3d
       0.008719528 0.027593773 -0.06908801 0.06153928
000240 3f 64 c9 bd 9e 60 f5 3d f9 25 e3 bc 92 fd 04 ba
       -0.098335735 0.11981319 -0.027728068 -0.00050731853
000250 cb c8 6d 3d e3 5c 61 bd 5c 0b 1c bc 14 fa 23 3c
       0.05805282 -0.055020224 -0.009524193 0.010008354
000260 18 5e c2 3d 29 5d a8 3c fa 82 95 bd fb 67 cf bc
       0.09490603 0.020552235 -0.073003724 -0.025318136
000270 cd b1 04 3d 2c 39 fe 3b b2 9f 2e bd 46 c9 16 3d
       0.032396127 0.0077582803 -0.042632766 0.036813043
000280 b3 94 19 3d 3d 30 92 3b 95 12 11 bd 26 2d 97 3d
       0.037495326 0.004461317 -0.03541811 0.07381658
000290 1d 98 85 3c 3b 9e 2d 3d f5 f2 27 bc 95 fb 86 3d
       0.016307885 0.04238723 -0.010250797 0.06590954
0002a0 41 e2 4f bd d8 40 17 bd 7a 1f c3 bc 1c ef ca bc
       -0.050752882 -0.036927074 -0.02381872 -0.02477222
0002b0 d8 a7 36 3c 08 71 8c bd cb 8b ae bd 59 03 29 bd
       0.0111484155 -0.068574965 -0.08522757 -0.04126296
0002c0 94 ac bc ba 38 c3 a5 bd 04 23 e2 bc 63 f8 56 bc
       -0.0014394694 -0.08093876 -0.027604587 -0.013120743
0002d0 10 fe d1 bd 4a e2 71 bc 3b 54 91 bd 7c 14 1b 3d
       -0.10253537 -0.014763424 -0.07096144 0.037861332
0002e0 e8 8f d2 bc 0d 33 9c 3c a0 5d 87 bc 10 67 af 3c
       -0.025703385 0.019067312 -0.016524136 0.021411449
0002f0 30 6f 89 bd 9f ba 7a bd 9d c4 42 3c 99 2a 0b 3a
       -0.067106605 -0.061213132 0.011887697 0.0005308777
000300 7b 9a bb 3c d1 7c 66 bc 3d 2a 7e bd de a7 d1 3d
       0.02290081 -0.0140678445 -0.062052 0.10237096
000310 12 33 e1 b8 7d 31 a3 ba 09 c5 99 bc da 04 83 bc
       -0.00010738349 -0.0012450662 -0.018770711 -0.015993524
000320 85 a0 a5 3c 4b b0 f8 bc bd 31 a0 3c 5b 51 94 3b
       0.020218143 -0.0303575 0.019554967 0.0045263
000330 04 4f 2b 3d 3c cb 87 bd 88 3e 1b 3c 6e e3 56 3d
       0.041823402 -0.06630561 0.009475358 0.052462988
000340 e2 b3 5a 3d 16 ab c0 3d e2 6a aa bd 8d 7d 36 3d
       0.053394206 0.09407632 -0.083211675 0.04455333
000350 bb 64 1e bd c9 1b 1e 3d fb be 74 3c 72 50 42 3c
       -0.038670283 0.038600717 0.014938111 0.01186
000360 a0 af 99 bd bd 57 52 bd 63 d8 48 bd f8 60 e5 bd
       -0.07504201 -0.051353205 -0.049034487 -0.11200136
000370 a8 70 a2 bc 4e a6 04 3d fa 03 81 bd dc 9e df 3c
       -0.01982911 0.032385163 -0.062995866 0.02729743
000380 a9 d9 9f bd f7 18 bd 3d 65 9b 7b 3c 2d 0f 97 3d
       -0.07805187 0.09233277 0.015356873 0.073759414
000390 8b 23 0d bd 05 d8 c9 bd c2 46 06 bd f6 76 fb bc
       -0.034457725 -0.098556556 -0.032782324 -0.030696373
0003a0 86 a4 0b 3d ed 47 88 3d 34 48 b3 3d b8 36 ec bc
       0.03409245 0.06654344 0.08754006 -0.028834686
0003b0 0e 0e 23 bd 43 09 98 3c 33 48 78 3d 0a 65 03 bd
       -0.039808325 0.018559104 0.06061573 -0.03207878
0003c0 12 ae 6c bd 52 9a d1 3c 00 6c 0a bd 2c 82 d3 bd
       -0.057783194 0.025586281 -0.033794403 -0.10327563
0003d0 a2 43 14 3d 46 74 eb bc 93 25 2c bd 3e 55 32 bc
       0.036197312 -0.028741967 -0.04202802 -0.010884581
0003e0 0d 44 2d bd b2 4e 5f 3c 21 5d 91 bd b7 07 e5 bc
       -0.042301226 0.013629602 -0.07097841 -0.02795778
0003f0 49 fe 87 3d a9 ef 6d 3d 55 2c 4b 3d 68 3a a5 bc
       0.06640298 0.058089886 0.049602825 -0.020169452

rnn_b_module.gru.weight_hh_l0 f4 [384, 128]
000000 e0 41 8b 3d fe b3 1c 3d 19 d0 b2 3c 56 0a a8 bd
       0.06799674 0.03825759 0.021827744 -0.082050964
000010 5e b8 94 bd 04 fb 4e 3c dd 13 c0 3d 34 6e 15 bd
       -0.07261728 0.012633089 0.093787886 -0.03648205
000020 97 ca 47 bd d3 93 0f bd c9 f6 96 3d 62 59 3c 3c
       -0.04877719 -0.035053086 0.07371289 0.01149592
000030 11 b3 ba 3c 60 9b b4 3d 87 d2 91 bd ed ac 13 bd
       0.022790464 0.08818698 -0.07120233 -0.036053587
000040 d3 01 92 bc fc 81 4b 3d b3 8a cb bd 7b 24 c8 3c
       -0.017823135 0.04968451 -0.09938564 0.024431458
000050 8b 59 38 3c 87 c2 a5 3d 32 4b 6e bd 7a c4 35 3d
       0.011251817 0.08093744 -0.05817718 0.044376828
000060 67 6d af bc 30 4c 63 3c a6 d9 4a bd 6c ca 24 bd
       -0.021414472 0.013873145 -0.049523972 -0.040232107
000070 7a 85 38 bd 84 58 10 bd 26 91 e8 bc b1 ef 14 3d
       -0.04504917 -0.035240665 -0.028389525 0.0363614
000080 1a c3 99 3d d5 35 54 3d db 88 cd bc fb 4e 5b 3c
       0.07507916 0.05180915 -0.025089672 0.01338553
000090 54 de 9c bd cb 6b 35 3d 35 e7 7b 3d 35 fb 45 3d
       -0.07659593 0.044292253 0.061499793 0.048335273
0000a0 7c b3 4e bd fc 08 18 bd dc dc bc 3c 69 fa a3 bd
       -0.05046414 -0.037117943 0.023054533 -0.08006746
0000b0 86 5c 35 3c 13 48 28 3d 1b a4 76 bd 84 cc f9 bc
       0.011069423 0.04108436 -0.060215097 -0.030493028
0000c0 a2 63 5d bd 20 5c 14 3d e4 75 14 bd 2a 25 84 3d
       -0.054050095 0.03622067 -0.03624524 0.06452401
0000d0 2e 87 d8 3c 7a 6f d0 3c 0d 62 31 3d cd 77 78 3d
       0.026431646 0.025443781 0.0433064 0.060661126
0000e0 29 d1 69 3c 36 ef cf 3d f4 fb 87 3d 61 a1 4f 3c
       0.014271059 0.10153048 0.06639853 0.012672753
0000f0 1a c4 1b 3d 42 46 24 3c c3 63 bc ba 62 a5 a3 3c
       0.038028814 0.010026516 -0.0014372993 0.019976322
000100 3c 63 6f 3a 4f 77 ca 3b aa 2b df 3d 43 2c 6b 3d
       0.00091319135 0.0061787735 0.10897 0.05741526
000110 b9 3d 93 3d cf 6f 17 3d de c7 15 3d d2 e7 c2 3d
       0.07189507 0.036971863 0.03656756 0.095168725
000120 e5 bc ae 3d 93 b6 8e bc 8d 3a 9c 3c 44 a4 90 3c
       0.085321225 -0.017421043 0.019070888 0.017656453
000130 98 15 89 bd d8 ec 6c bd 3b 4c 5e bd 0a 25 59 3d
       -0.06693572 -0.05784306 -0.054271918 0.05301384
000140 63 d5 57 bc d3 75 20 bd c3 73 f4 bb f4 eb 48 bd
       -0.013173434 -0.039174866 -0.007460089 -0.049053147
000150 38 fc 5c 3d cb c4 33 3d 77 a4 c8 bc 85 fc df bd
       0.053951472 0.04388885 -0.024492485 -0.10936836
000160 af 62 41 bd 45 11 02 3d 1a dd 07 bd 53 92 f7 3c
       -0.047213253 0.03175475 -0.033169843 0.03022114
000170 a0 bf 98 bc 93 14 76 3c 97 cc 0a 3d 7e 92 99 bd
       -0.018646061 0.015019554 0.03388652 -0.07498644
000180 35 72 aa 3d 25 ff 41 bd 6e 56 6c bd 79 d4 61 bd
       0.083225645 -0.047362465 -0.057699613 -0.05513427
000190 6c 17 33 bd 9e 4d 9e 3a 77 3e 30 3c 80 6b 75 3d
       -0.04372351 0.0012077575 0.01075708 0.059916973
0001a0 8c 96 b6 bc a9 6f b7 3d 27 b4 61 3c ab 64 b3 3c
       -0.022288583 0.08956844 0.013775862 0.021898588
0001b0 e5 a4 92 bc 9e 58 21 bd b8 a5 96 bd 98 08 c9 bd
       -0.017900893 -0.039391153 -0.07355827 -0.09816092
0001c0 9b a2 bf 3c 9e f6 a5 3d bb e1 16 3d de 6d 50 bd
       0.023392966 0.08103679 0.036836367 -0.050886028
0001d0 09 ec 02 3c c3 b3 82 3c c9 e2 4d 3d cb d9 49 bb
       0.0079908455 0.015954858 0.050265107 -0.003079998
0001e0 1f c1 55 bd 1c 8a bf 3c f5 cf 74 bc d7 3c 93 bd
       -0.052186128 0.023381285 -0.014942159 -0.07189339
0001f0 ad 68 c4 3d 89 38 7f 3d dd 24 2a bd 6a 6a 89 bc
       0.09590278 0.062309776 -0.04153906 -0.016774375
000200 00 bd 65 3d a6 0b 9a 3d c2 29 cf b9 23 58 7f bd
       0.056088448 0.07521753 -0.0003951323 -0.062339913
000210 cb b2 d1 bc 1b 11 d8 3c e7 38 58 bd ac 8f 98 3d
       -0.02559795 0.026375344 -0.05278864 0.07449278
000220 7f b0 01 bd ce a4 6b bd fd a3 d1 3d 79 aa 8e 3d
       -0.03166246 -0.057530217 0.102363564 0.06966109
000230 3e 19 86 bd 67 6d 19 3d 18 21 d1 bd 85 c1 34 3a
       -0.06547783 0.03745785 -0.1021139 0.0006895292
000240 cf af b3 bc 7e cf a7 bc 59 88 41 bd 74 7b 5f bd
       -0.021934418 -0.020484682 -0.047249172 -0.054561093
000250 2a 93 c0 bc f7 25 30 3d ae b1 ba bb e9 2f 02 3d
       -0.023507673 0.043004956 -0.0056974506 0.031783972
000260 28 f6 80 bc c0 88 d2 3d 37 08 4d 3c e2 a0 83 3d
       -0.015742376 0.10279989 0.012514166 0.0642717
000270 66 85 cc bd 62 cf 85 bb e2 b7 7f bd a8 2f dc 3c
       -0.09986381 -0.00408356 -0.062431224 0.026878193
000280 92 73 4d 3d b1 c6 3d bd 65 8c 18 3c 10 58 bd bc
       0.050159045 -0.046332065 0.009310816 -0.02311328
000290 ed 56 13 3d 6e 08 b5 3c ae 99 10 bd 95 a2 6f ba
       0.03597157 0.022098746 -0.03530281 -0.0009141353
0002a0 64 39 77 bd 67 f1 7a 3d 9c 72 27 bd cf 7b 3d bd
       -0.060357466 0.061265375 -0.040880784 -0.04626065
0002b0 c7 54 b1 bd 58 87 24 3c 3e 1c ef bc 6e 6c 0d bd
       -0.08658748 0.010042034 -0.029188272 -0.034527235
0002c0 ad df 2e 3d e1 51 8f 3d 50 98 61 bd 4c 28 5e bd
       0.042693783 0.06998039 -0.055076897 -0.05423765
0002d0 6d 50 c2 3b ad b2 79 3c 45 85 a0 3c 98 41 c9 bc
       0.0059299977 0.0152403535 0.019594798 -0.02456741
0002e0 8c 05 8b bd 01 6b 27 3d 1d 6e 65 3d c7 5e 16 bd
       -0.06788167 0.04087353 0.056013215 -0.03671148
0002f0 66 a3 81 bc d9 fc 04 3d 51 40 8b bb 92 10 06 bc
       -0.015824985 0.032467697 -0.0042496105 -0.008182662
000300 d5 22 c5 3d 48 7f af bd 10 c1 b5 3d 92 94 90 bd
       0.09625784 -0.08569199 0.088747144 -0.070595875
000310 bc 2e ab 39 c5 0c 85 3d 83 52 32 bd 80 9d 9f 3c
       0.0003265048 0.06496576 -0.04353572 0.019484282
000320 a3 68 9b 3d 1d 23 68 3d 75 51 6e bd ea 4d c5 bc
       0.07588317 0.05667411 -0.058183152 -0.024085004
000330 25 eb 6e 3d 06 dd 5a 3c 36 38 e5 bc 60 c8 37 bd
       0.05832972 0.01335836 -0.027980905 -0.044868827
000340 61 3e 7d 3d 00 50 54 3d e0 df cc bd 92 0d 42 3c
       0.061827067 0.051834106 -0.10003638 0.011844056
000350 c0 59 4d 3d e0 b5 dc bc ce 7d 2a 3c bc ea 37 3c
       0.05013442 -0.026942194 0.010405971 0.011225399
000360 bd f3 28 bd 1d e8 05 bd be 07 0f 3d c5 92 b1 bc
       -0.041248072 -0.032692064 0.034919493 -0.02167643
000370 7f 50 64 bd 9a 10 22 3d c2 b9 c1 bc 94 09 92 bd
       -0.05574083 0.039566614 -0.023648147 -0.07130733
000380 00 e9 7a 3d 96 84 1a 3d 1e fa 5b 3d 2d c8 6d bc
       0.061257362 0.0377241 0.053705327 -0.014513058
000390 75 9f 81 3d 63 01 cb 3d 5e c1 9c bd 75 49 25 3d
       0.06329242 0.09912374 -0.07654069 0.040353257
0003a0 5c 03 44 bd 65 a5 e8 3b d0 fb af 3d 5f c8 c8 bd
       -0.047854766 0.0070997947 0.08592951 -0.09803843
0003b0 e1 63 84 3d f2 a9 09 3d fc 35 62 bc fd 16 1f 3c
       0.06464363 0.033609338 -0.013806816 0.009710071
0003c0 94 8e 8f bd 2d 10 9d 3d cb 7a b5 3c ac e1 90 3d
       -0.070096165 0.07669101 0.022153279 0.070742935
0003d0 5b 49 10 bd 7a 36 0b 3d fb ea 0d bd 14 e2 05 3c
       -0.035226207 0.0339875 -0.034647923 0.008171577
0003e0 64 ef 1c 3c 86 df 23 3d 2b ce aa 3d 51 c5 60 3d
       0.00957856 0.04000809 0.08340105 0.054875676
0003f0 a5 e4 0c bd ed f1 04 bd 70 8c a8 bd 70 8f 93 bd
       -0.03439774 -0.03245728 -0.08229911 -0.07205093
