retain/save/RETAIN_BKEY.pt (torch_old, 882982 bytes, 13 tensors)

emb f4 [41, 128]
00000000: 1bbf 9dbb 7bcf 663b 2278 2fbc ff5d db3c
00000010: 76ef 1bbc 4af8 b73c c24a 543c 09b9 1fbb
00000020: fc0c 883c 3cfc 77bb 7715 3fbc 48ab b9bb
00000030: d1c4 a1bc e3d9 343c 0624 e63b 5bbe 673b
00000040: 1ea5 4dbb 10dc d73b 6404 11bc 135d 2b3c
00000050: 04aa 0ebc 78e5 8ebc e54e 433c 5625 383c
00000060: 2892 3ebb 0ad3 133d 4c20 483c 3c13 643c
00000070: 3958 0a3c af62 443b b6bb 50bb 7dc8 7bbc
00000080: c13b aebb 9d2f 57ba d1fb 46ba b1d5 273b
00000090: 1934 57bb 7d37 3cbb f60f 00bb 0afc 893b
000000a0: 2785 a43c 6321 193c 7999 9fbc 1e22 4cbc
000000b0: 43ac a53c c6d3 0ebb ed9f 3b3b 6495 1bbc
000000c0: 41ea babb e608 d13c 33d9 b63b e1d6 8d3b
000000d0: 69f8 60bb f1fd 57bb 6b33 883b 142a 8ebc
000000e0: f5dd 213a 47f6 70bc 4a8a 7f3c ca69 48bc
000000f0: 713d e9bb 8e1d d8b9 0c55 88bb 3126 b1ba
00000100: 7de7 6bba ed0c 273c 7f3e 353c 7765 413b
00000110: c046 b53a 8910 ed3b 28b6 4cbb 2785 ecbb
00000120: d045 77bc fdd3 8d3b 7594 bb3b 545e 9b3c
00000130: 14a6 b33b 7c00 a0bb 354f 0fbc 7733 1d3c
00000140: 691f 843c 762a b23b cbff 32bc 9ae5 9e3c
00000150: 26ba 263c da1b 00bc 7245 c0bb d1d7 7b3c
00000160: 366c 7ebc af0e 633c 1e6c 39bc 8e3b 8dba
00000170: 671f 72bc 8f99 903b e3d4 963c b320 69bc
00000180: cdf4 073c 60cb 0bbc d34c cfbb 218d 3b3c
00000190: 11e8 a13c e43d e7bb cc69 a73b 6983 183d
000001a0: 46e6 54bc 5c35 c6bb 5d29 1b3b 2db5 9e3b
000001b0: f4ea 7bbb a433 753c 2698 70bc 2608 733c
000001c0: ce5b 82bb e223 893b 13e5 a3ba b330 02bc
000001d0: eb4f 5bbc 1605 4a3c 376b 65bb d7f0 80bc
000001e0: 5852 23bb 9e5e d5bc 4adf a93c 4fac 803b
000001f0: 8a9e 983c 121f c5bc 9b74 543c 0ef8 a2bc
00000200: 91cb 58bc 4e8f 0a3c a9cc 66ba c158 5b3b
00000210: 5cb8 94bc 352b 8b3c 3bce 79bc 5d68 97bb
00000220: 45de 863a e49d 23bb 65a6 c4bc 39da 6dbc
00000230: 3f9e 61bb 6468 bb3c ae1a 3e3c 8ecd 573b
00000240: a6d4 60bc 9bf7 09bb 5b3b 643b d344 3cbb
00000250: ea62 1d3b 3273 45bc 7661 b93b 1227 da3b
00000260: 17f3 8c3c 091c 533b c35b ad3c 9fad 8c3c
00000270: 1e66 8ab9 af5d 9a3b 8ac1 0ebb c4a0 76bc
00000280: a6d1 a93a ce72 4d3b 3775 493b e00a 3db9
00000290: dbd5 503c 2bca 8fbc c382 e33b a0d3 cabb
000002a0: 3005 35bc 2b68 e6bb d9eb 02bd f92d 23bb
000002b0: 29b5 f93b b984 82bb da5f 043d 9230 99bb
000002c0: 1c53 233b e424 a83c 35f5 f13a 07aa 9d3c
000002d0: 343b 9b3b bdbd f03c b5b8 5a3c 2656 a03a
000002e0: 8cce 35bc 5e16 a4bc 4e83 9abb b317 82bb
000002f0: c660 a7bc 26d0 c43c b2e3 713b 231c 5abc
00000300: 9f30 8c3c de5e 983c 67cc b23c 7649 743c
00000310: 991f 50ba 0134 ac3c c4a1 273c 5935 7ebc
00000320: e20b 02bc c238 9fbb ee7b eabb ba57 0c3d
00000330: 400a 533c f73f 963b e456 abbb 853e 5a3c
00000340: 5ee0 d23c 21b0 37bb 259f 4c3a ff76 2cbc
00000350: a997 bc3c 4191 c038 660a 2fbc 5c19 513c
00000360: cc30 83bc 8132 c73c aff2 4fbc 8674 e9bb
00000370: d455 09bc 4fdb 433c 0980 f0bc 0084 243c
00000380: 8b34 c13b 9236 8dbc f26f 2c3a 5474 603c
00000390: e2e2 113d dc02 51bb 43ff 77bc 696f 933b
000003a0: 8b5a 393c 64fe 80bc 2e9a 873b adcd 8dbc
000003b0: 156d 9cbc 64d6 473c fff4 0cbc 83d1 883c
000003c0: b841 d6bb 7477 39bc dcc8 903b f42d 9c3c
000003d0: 652f ec3a 1ffd 383c c2b4 303c 5abc a4bc
000003e0: 7c1e 29bc 1e15 64bc 0d03 06bb 5fab 5ebc
000003f0: 3bec 353c e357 80bc 802d 33bc b708 8fbc
-0.0048140413 0.0035218883 -0.010709794 0.02677822 -0.009517541 0.02245726 0.012957277 -0.0024371764
0.016607754 -0.0037839552 -0.011662832 -0.0056661703 -0.01974717 0.011038276 0.0070233373 0.0035361263
-0.0031378935 0.006587513 -0.008851144 0.010459202 -0.008707527 -0.017443404 0.011920665 0.01123937
-0.0029078815 0.036089934 0.012214731 0.013920601 0.0084438855 0.0029966047 -0.0031850166 -0.015367624
-0.005317182 -0.0008208694 -0.0007590624 0.0025609548 -0.003283745 -0.0028719597 -0.0019540763 0.0042109536
0.020083023 0.009346339 -0.019482361 -0.012459306 0.020223742 -0.0021793707 0.0028629259 -0.009496067
-0.005704195 0.025516938 0.0055800914 0.004328594 -0.0034327751 -0.0032957757 0.00415652 -0.017354049
0.0006174737 -0.014707155 0.0155969355 -0.012232253 -0.00711792 -0.0004122075 -0.004160529 -0.001351541
-0.0008999033 0.010195953 0.0110622635 0.002950994 0.0013830289 0.007234637 -0.0031236503 -0.0072180214
-0.015092328 0.0043282495 0.0057244846 0.018965878 0.0054824445 -0.0048828702 -0.008746912 0.00959479
0.016128259 0.0054371906 -0.010925244 0.019396592 0.010176217 -0.00781914 -0.0058676535 0.015371279
-0.015528729 0.013858481 -0.011317281 -0.0010775195 -0.014777995 0.004412837 0.01841206 -0.0142289875
0.008298111 -0.008532375 -0.006326297 0.011447222 0.019763978 -0.0070569385 0.0051090475 0.037234697
-0.012994355 -0.0060488414 0.0023675777 0.004843375 -0.0038439604 0.014965925 -0.0146847125 0.014833486
-0.003978229 0.004185186 -0.0012504183 -0.007946181 -0.013385753 0.012330314 -0.0035006532 -0.015739841
-0.0024920907 -0.026046094 0.020736355 0.003926791 0.018630285 -0.024062667 0.012967254 -0.019893672
-0.013232128 0.008457018 -0.00088043005 0.003346965 -0.018154316 0.016988376 -0.015246923 -0.0046205954
0.001028963 -0.0024965936 -0.024005124 -0.01451736 -0.0034426597 0.022876926 0.011603041 0.0032928917
-0.013722574 -0.0021052125 0.0034825418 -0.0028727546 0.0024015256 -0.0120513905 0.00565737 0.0066574896
0.017205758 0.0032212755 0.02116192 0.017172633 -0.00026397494 0.004710875 -0.0021782839 -0.015052978
0.0012956157 0.0031348947 0.0030740032 -0.00018028496 0.0127463 -0.017552456 0.0069430782 -0.0061897784
-0.0110486 -0.0070314608 -0.031963203 -0.0024899228 0.007620473 -0.003983107 0.032317974 -0.0046749795
0.0024921363 0.020525403 0.0018459918 0.019246114 0.004737282 0.02938735 0.013349702 0.0012232705
-0.011096608 -0.020030197 -0.00471536 -0.0039701103 -0.020431887 0.024025034 0.0036909399 -0.013312372
0.017113028 0.018599924 0.021825982 0.014910093 -0.0007939279 0.021020891 0.010231439 -0.015515649
-0.007937403 -0.004859061 -0.007155887 0.03426335 0.012880862 0.004585262 -0.005228864 0.01332057
0.025741752 -0.0028028565 0.0007805697 -0.010526418 0.023021536 9.182329e-05 -0.0106836315 0.012762394
-0.01601448 0.024316074 -0.012692138 -0.0071244864 -0.008382279 0.011954143 -0.029357927 0.010041237
0.005896156 -0.017237935 0.00065779604 0.01369961 0.035616763 -0.0031892573 -0.015136543 0.004499365
0.011313091 -0.015746303 0.0041382527 -0.017309988 -0.019094983 0.012197111 -0.0086033335 0.016701465
-0.006538596 -0.011319984 0.0044184756 0.01906488 0.0018019496 0.0112908175 0.0107852835 -0.020109344
-0.010322209 -0.01392105 -0.0020448596 -0.013590663 0.011103685 -0.015666908 -0.010936141 -0.01746021

rnn_module.gru.weight_ih_l0 f4 [384, 128]
00000000: 8497 99bd 8bdf ce3b d533 f93c bd7f b3bd
00000010: d70c 39bc 5ce2 d0bc 75e2 76bc 9f37 0f3d
00000020: ce0f 2f3c 80c8 7a3c 2789 31bd 26c5 1fbd
00000030: 2689 653d b7dc 51bd e1f6 76bd 933c 9dbd
00000040: a7d1 9e3d e099 cb3c 7282 91bd d8bf 4c3d
00000050: b3de b43a 3d25 d13c a4c3 f6bc 8fd4 8bbd
00000060: 2efa 793d a6cf 38bd 7ac3 a03b d453 43bd
00000070: 276a 923d c3b0 7e3d 93cd ac3c 445a 7c3c
00000080: 0539 823d 4bb6 c5bc 5eb8 843d d261 e63c
00000090: 9347 2f3d 11be 9a3d 5db0 833d 5735 ed3b
000000a0: 54aa c1bd 8cef 79bd 9c49 243d 5ce8 253d
000000b0: 025e a1bd c3f6 593a a1cf 85bd 5f0f 2d3d
000000c0: 43ce 7a3d d846 b73d c2ce 2ebd cb03 91bd
000000d0: 1889 98bd 296d e23c 5869 abbd 35e0 14bd
000000e0: c78b 873d a3a8 70bd cba6 213d 215d 863d
000000f0: 2111 003d 2e27 143d 3d1f 4f3d a0f2 2b3c
00000100: ae3b c3bc eb55 643b a2f1 323c eeb1 823d
00000110: 262a b33d b115 433d 6c95 d7bb 9617 0c3d
00000120: 631e 813d 280b 35bd 3ec8 83bc d8a5 5ebd
00000130: 814d 0d3d 8e61 7e3c 007e 023d 001d fabc
00000140: bd79 8abc 0858 e0bc 83bb cf3b 1a0f d7bc
00000150: 9804 1f3d 91f2 d43c ecb1 6ebd 7422 a53d
00000160: 3187 3b3d 6896 973d 2e2b 443d 1ef9 0a3d
00000170: 5d1c cbbd f357 b1bc fa92 7b3d 766b 063d
00000180: 6333 45bd 5545 2fbd 8244 b03a d688 003d
00000190: cd9a 9f3d c829 3cbd 6bc7 e2bc eee6 c73d
000001a0: b682 c6bd 425f 833d ad91 913d 45d7 a3bd
000001b0: 89a1 03bd 1c82 1f3d cf44 b23c f088 d3bc
000001c0: 3cac 873d 77b1 80bd dccd b83c 2d69 a23d
000001d0: 1606 733c 4c25 b5bd aaa0 893d 8ed5 b43d
000001e0: 13fb 4abc 7f3e 71bd 31dc 963d aeef 93bd
000001f0: 8f2c 8abd 23d7 cd3c e4cf 633d 59dc 27bd
00000200: b559 3bbd 1b2b 48bd 7360 6c3c a2b3 a93d
00000210: 8d67 ae3c 20e3 9bbd 7a46 483d f6c1 2e3d
00000220: 2f7e 45bd 881f a73d 5bb5 5ebd c69c 9a3d
00000230: 9094 30bd a1c3 963d d55a 6b3b 3a45 21bd
00000240: 2a91 5c3d 6184 7ebc 5f2c 9b3c 858d d7bc
00000250: 51ad 18bd 6abb dabc 5d1f b43a 1d54 b93d
00000260: d0a8 56bd 0d31 a9bd 7057 d43c 7143 803c
00000270: f668 8bba 22d1 4f3d a7fe 8abd 840b 8dbd
00000280: 5ed4 3abc e6e0 54bd 9749 363a 327d 293b
00000290: 3afb 8c3d c74d b6bd 9c16 9abd eaca a8bb
000002a0: c0d2 dc3a d95a fe3c 99c0 1e3d 87c4 80bc
000002b0: 1613 b33d 648d b63d f967 65bd f887 2d3d
000002c0: 7264 e7bc 5d5f 77bd 19b0 933c 95df babd
000002d0: eaa9 ac3d f765 133c a2d8 c1bd ad27 8bbc
000002e0: d0c1 86bd 912f b4bd 63ce b2bc 8897 d3bc
000002f0: dac4 7e3d f846 1dbd 5f71 ae3d 6a45 3b3d
00000300: 513d 80bd 831c cb3b 695e 353d 1348 ecbb
00000310: 911c 85bc 8d41 943d 15f5 483c 3f6b 7c3d
00000320: e052 b63d 0456 323d b5d3 853d a878 7a3d
00000330: 9954 08bc ec3b aa3d 9822 26bd e0f0 7bbd
00000340: a02b 683d 7d2a 82bd 21f0 3bbd 6125 6ebd
00000350: 285e c1ba 7e03 563d 3a90 2d3c 507e f0bc
00000360: 8334 91bd 31a6 aabd ffac 6cbd 8d45 e1bc
00000370: 580b 2bbc bd09 ac3d c5c7 883d 6450 82bd
00000380: 8775 97bd 2fb2 c8bc 88b0 0e3d e63f 393d
00000390: fdaa 6a3c bfec d7bc 44f1 bc3c 1565 7cbd
000003a0: 38ac 213d 9c5e 073d 9884 93bd b80e 10bd
000003b0: 32bf 39bd e7c9 4c3d 32e2 80bc 0ccd 833c
000003c0: f2ca 6b3d b4a4 4ebd 71b9 26bc 0e0f a7bd
000003d0: 6cff 9f3d b1cb 8a3d d362 bdbd 4155 1abc
000003e0: 08de 883d 669f 8c3d b809 aebd c2e8 c73c
000003f0: 43b0 9d3d 6c7f 903c c01d a73d 3b86 37bd
-0.074996024 0.0063132695 0.030420223 -0.087645985 -0.011294565 -0.025498562 -0.01506864 0.034965154
0.0106849205 0.015306592 -0.04334369 -0.039006375 0.056038998 -0.05123588 -0.060294036 -0.07677569
0.07754832 0.024853647 -0.071049586 0.049987644 0.001379928 0.025530452 -0.030122586 -0.06827652
0.061029606 -0.045119904 0.004906115 -0.047687367 0.07149153 0.06218029 0.02109412 0.01540238
0.06358532 -0.024134776 0.06480478 0.028122816 0.042792868 0.075557835 0.06430123 0.0072390246
-0.09456316 -0.061019465 0.040109262 0.0405048 -0.07879259 0.00083146634 -0.06533743 0.042250987
0.061231863 0.08949059 -0.04267765 -0.070808016 -0.074480236 0.027639942 -0.08369702 -0.036346633
0.06618457 -0.058754575 0.039465707 0.06560732 0.031266335 0.036170177 0.0505669 0.010494858
-0.023832168 0.003484125 0.010921868 0.06381594 0.087482736 0.04762811 -0.006579092 0.03420218
0.06304624 -0.044200093 -0.016086694 -0.05435738 0.03449774 0.015526189 0.031858444 -0.030531406
-0.016903752 -0.027385727 0.006339492 -0.026252318 0.03882274 0.02599457 -0.05827515 0.08063212
0.045783225 0.074017346 0.04789274 0.033928983 -0.09917519 -0.021648383 0.061419465 0.032817326
-0.04814471 -0.04279073 0.0013448151 0.031380497 0.07793198 -0.045938283 -0.02768298 0.09760843
-0.096929 0.06414653 0.071078636 -0.08000044 -0.032136474 0.03894244 0.021761326 -0.025822133
0.06624648 -0.06283849 0.022559099 0.07930217 0.014832994 -0.088450044 0.06720097 0.08829795
-0.012388962 -0.05889749 0.07366217 -0.0722345 -0.0674678 0.025127 0.05561818 -0.040981624
-0.04573985 -0.048869234 0.014427292 0.08286215 0.021289611 -0.0761168 0.048895337 0.042665444
-0.04821604 0.08160311 -0.054372173 0.075494334 -0.04311043 0.07361532 0.0035912294 -0.03937266
0.053849377 -0.015534491 0.018942056 -0.026312599 -0.037274662 -0.026700694 0.0013742257 0.090492465
-0.052407086 -0.08261309 0.0259206 0.015657159 -0.0010636139 0.050736554 -0.06786852 -0.06886962
-0.011403171 -0.051972292 0.0006953715 0.0025861976 0.06883855 -0.089015536 -0.07523844 -0.0051511424
0.0016847476 0.031049179 0.038757894 -0.015718712 0.08743875 0.08913687 -0.05600736 0.042365998
-0.028246138 -0.06039368 0.018028306 -0.09124676 0.08430846 0.008996478 -0.094651476 -0.016986692
-0.065799356 -0.08798135 -0.021826928 -0.025829092 0.06219945 -0.03839776 0.085177176 0.045720495
-0.06261695 0.006198467 0.04427949 -0.0072107404 -0.016248973 0.07239065 0.012265463 0.061625715
0.08902526 0.043539062 0.065345205 0.061150223 -0.008320951 0.083122104 -0.040560335 -0.061509013
0.05668223 -0.0635576 -0.0458833 -0.058141116 -0.0014752792 0.052249424 0.010593468 -0.029357105
-0.07090094 -0.0833248 -0.05778217 -0.027498985 -0.010439716 0.08400295 0.06678728 -0.063629895
-0.073954634 -0.024499027 0.034836322 0.045226954 0.014322993 -0.026358007 0.023064263 -0.061619837
0.03947088 0.03304921 -0.072030246 -0.035170287 -0.045348354 0.049997237 -0.015732858 0.016088985
0.05756659 -0.050450042 -0.010176049 -0.08157168 0.0781239 0.06777132 -0.09247365 -0.00941974
0.06682974 0.0686634 -0.084979475 0.02440298 0.07699635 0.017638884 0.08159971 -0.044805747

rnn_module.gru.weight_hh_l0 f4 [384, 128]
00000000: 4c2e ff3b 4d7f 883d 3559 823d 728c 9d3d
00000010: 431d 6fbd 68a4 55bd 185f 06bd 6baa 443d
00000020: 4c39 8a3b 99e1 b83d 143c 523d 40cf 33bd
00000030: 5714 e2bb 2c30 15bc aae1 0bbd 17be 68bc
00000040: b364 6f3d f240 c4bc 2d19 0b3d 48d6 20bd
00000050: 4523 0dbc 5968 2a3d 9c5c 8a3c ae92 ab3c
00000060: 0bf3 323d 8a53 03bd a780 80bd 3f57 92bd
00000070: 91c9 a4bd 9f14 0d3d b2c6 c33c c447 603d
00000080: 3616 ad3d 523e 003d aa05 a43c f235 ecbc
00000090: 6aad 913d d267 aa3d b2f1 9a3c 3189 9d3d
000000a0: f5d0 2cbd fb75 a4bc 2bae 23bc 7d58 4c3b
000000b0: 3be6 94bd 3e02 e5bc 2fe0 253c b11b b73b
000000c0: 5c2d 07bd 0536 8f3c 909a c3bc 76fc b0bc
000000d0: 6559 e5bc a4f2 95bc 5dec adbd 26bb 7c3d
000000e0: 429d a0bd c1c5 a1bd f509 76bd d2cd a3bd
000000f0: 5287 b0bd 7bbd 113d 82d7 94bd aee0 b8bc
00000100: 62d5 323c cd64 b63c 5794 043d 5912 9ebd
00000110: 6063 abbc 3274 083c 23ec 85bd 7169 71bd
00000120: dbc0 3c3d 87ca a3bd bddb bdbc de3c 763d
00000130: ff24 2c3d 8c87 2e3c 4402 a63d acbb edbc
00000140: 2ac0 e8bc cb49 0cbd 6439 613d 4d2c 0bbd
00000150: 3205 bd3d 2062 d13c 792d 4c3d d07f 473d
00000160: 19ae 52bd 6fdf 12bb 9df9 03bd a44d 01bd
00000170: bf9c d03c 87e1 44bd ab7c 8f3d 8416 843d
00000180: 6ce9 afbd 5db5 f43a efd2 923d 22f6 6dbd
00000190: d636 6abd d120 8b3d 2f1b 04ba 2799 543d
000001a0: d023 2639 1c92 073d 84eb 4a3d 8b2b 0abd
000001b0: 75b7 783d 8cec 92bd 433f 29bb 8bfa 22bd
000001c0: a422 5c3d 7140 8ebd 1e4a a4bc d262 68bc
000001d0: b24e f43b 0907 41bd 244c a03d 5e31 bb3c
000001e0: b572 0b3d 5afd f2bb fdbf 9bbc c249 643d
000001f0: de63 f23c d1c3 5c3d ddc9 ddbc 0cdc 6b3d
00000200: 0090 e93b 6752 c1bd 8c22 18bd c7dc 94ba
00000210: b9cf a53d f58b 303c 3bba 5ebc ac84 a93d
00000220: 39d2 743d c2f8 283c 170e 48bd afc1 39bc
00000230: 2ca7 263b c680 a2bd 9993 4bbd 4afd 853d
00000240: 3694 6dbc c25a 8cbc 91b0 a3bd 4476 cf3c
00000250: 5e84 90bd 0e43 933d cc29 58bd 996a a43d
00000260: b361 243d 9689 d83b ca38 623c f5dd 42bd
00000270: ca20 38bd 6c60 68bd 2b0d 933c 59df 1bbd
00000280: d230 9b3d a580 90bc 7198 e73c e598 6cbc
00000290: db77 c83c ef8d fc3b 1385 be3d 2b0b 603d
000002a0: 9191 1dbd 60be a23d cb3e 923d 9f3e 993d
000002b0: 58e3 7a3b 0d0a b1bd 1814 13bc b417 8cbc
000002c0: 74e9 813c 838a 0d3d a1f6 23bc b103 c1bb
000002d0: 5700 b7bc 48a6 65bd 9795 ca3d eca5 233d
000002e0: 49b3 4a3d 7500 c13d 50b3 11bd 0dbb 693d
000002f0: 2091 a4bd 3440 dabc f957 9a3d c019 48bb
00000300: 315d e8bc dd1e 57bd 35eb 23bd 83f1 6dbc
00000310: cf7d 51bc aec0 9f3d 1e01 7ebd 2610 93bd
00000320: 97f2 dc3c 6764 893b 30ee 00bd ff25 3a3d
00000330: 1176 6fbd ded9 413d 0643 9abd 4219 f03c
00000340: 7dd9 673d 043d 7dbc f2b7 58bc 199d c23d
00000350: 16f8 453d cb61 97bc ae7b 9a3d ab2b 943b
00000360: a90e ff3c c3c3 8f3d 6f0c ac3d d22a a63c
00000370: a0dc b23c 6336 77bb a4bb c9bc 546a 5d3d
00000380: 70ce c63d add4 c3bd 0338 3bbc a8ac 963d
00000390: 4061 0e3d 00e4 a4ba 2ca9 733d 05cf 6b3d
000003a0: 9b4f 8a3d 578c 0cbd 95ec 493d a351 b23d
000003b0: cf68 f6bc 930c ac3d b8cb acbd 95c1 6dbd
000003c0: 9619 58bd 7115 813d 9b5e 283c c508 83bd
000003d0: 049f 33bd 310c 38bc 43e1 b8bd 3430 20bb
000003e0: 9e65 0c3d 0a1e 33bb 11f9 12bc bff4 063b
000003f0: 9e85 933d 2d09 17bd 4a5d 3c3b 2185 78bd
0.0077875014 0.06664906 0.06364671 0.076928034 -0.058377516 -0.052158743 -0.032805532 0.048014086
0.004218256 0.09027404 0.051326826 -0.04389882 -0.0068993974 -0.009105723 -0.034150757 -0.014205477
0.058445644 -0.02395675 0.033959556 -0.039266855 -0.008614366 0.04160342 0.016889863 0.020943966
0.043688815 -0.03206209 -0.062745385 -0.07145547 -0.08046258 0.034443494 0.023898456 0.05475594
0.08451502 0.031309433 0.020022232 -0.028834317 0.07113154 0.083205834 0.018914077 0.07692183
-0.042191464 -0.020075789 -0.009990255 0.0031180673 -0.072704755 -0.02795517 0.01012425 0.005588018
-0.033002242 0.017481813 -0.023877412 -0.021604758 -0.027996728 -0.018304177 -0.08492348 0.061701916
-0.078424945 -0.07899047 -0.06006809 -0.079982415 -0.0861956 0.035581093 -0.07267667 -0.022568073
0.010915132 0.022264862 0.03236803 -0.07718343 -0.02092141 0.008328484 -0.0653918 -0.058938447
0.04608236 -0.079976134 -0.023176068 0.06011664 0.04202747 0.010652434 0.08105901 -0.029020153
-0.028411943 -0.034250062 0.054986373 -0.033977795 0.092295066 0.025559485 0.049848054 0.048705876
-0.051435564 -0.0022411009 -0.03222047 -0.031568184 0.025465367 -0.048066642 0.070062004 0.06449607
-0.085894436 0.0018669773 0.07169139 -0.05809606 -0.057181202 0.067933686 -0.0005039451 0.05190387
0.00015844335 0.033098325 0.04954101 -0.033732932 0.060721833 -0.07174024 -0.002582506 -0.039789718
0.053743973 -0.06945885 -0.020054873 -0.014183717 0.0074556703 -0.04712585 0.07827023 0.022850689
0.03404494 -0.0074154558 -0.019012446 0.055734403 0.029588636 0.053897683 -0.027073795 0.0575829
0.007127762 -0.09439545 -0.03714232 -0.0011357301 0.080962606 0.010775556 -0.0135942055 0.08277258
0.059770796 0.010313215 -0.048841562 -0.011337682 0.0025429232 -0.07934718 -0.049701307 0.06542452
-0.014500668 -0.01713312 -0.07992662 0.025324948 -0.07056497 0.07190524 -0.052774236 0.080281444
0.040132236 0.0066081984 0.013807485 -0.047574956 -0.044953145 -0.05673258 0.017950615 -0.038054798
0.07577671 -0.017639467 0.028270932 -0.01444075 0.024471214 0.0077073495 0.09302726 0.05469815
-0.0384689 0.079464674 0.07140883 0.07482647 0.003828248 -0.08644495 -0.008976959 -0.017101146
0.01585839 0.034555923 -0.010007531 -0.0058903326 -0.02233903 -0.05606678 0.09891813 0.039953157
0.049487386 0.09423915 -0.035571396 0.05706315 -0.08035493 -0.026641943 0.07536311 -0.0030532926
-0.02836475 -0.052519668 -0.040019233 -0.014522913 -0.012786343 0.078004226 -0.062012784 -0.071808144
0.026971145 0.004192877 -0.031477153 0.045446392 -0.058462206 0.047326915 -0.07532315 0.029308919
0.056603897 -0.015456442 -0.01322745 0.0950262 0.048332296 -0.018479249 0.07543121 0.004521807
0.03113492 0.070197605 0.08400809 0.02028409 0.021833718 -0.0037721626 -0.024625607 0.05405648
0.097073436 -0.09562049 -0.011426928 0.0735715 0.034760714 -0.0012580156 0.059487507 0.057570476
0.06753465 -0.034313526 0.049297888 0.08706977 -0.030079274 0.08400836 -0.08437294 -0.058045942
-0.052758776 0.06302918 0.010276462 -0.06398157 -0.04385282 -0.011233375 -0.0902734 -0.0024442794
0.034276597 -0.0027331137 -0.008970515 0.0020592657 0.0720322 -0.036873985 0.0028742128 -0.060673837

rnn_module.gru.bias_ih_l0 f4 [384]
00000000: cae8 c43d 03ba b8bc 9f9b 933d 9ff2 3c3d
00000010: 76ca ea3c 2695 99bd 98bc 5ebb cd20 5c3b
00000020: e5c7 bb3d 76bc a9bd 6594 a53d b057 da3c
00000030: bc9f fbbc f9c1 63bd 7fee c1bc b0a1 a5bd
00000040: 775d 66bd 8752 773d 7ad3 80bd e66e 37bb
00000050: a9dc 23bd 7728 893d e0a0 9abc d3a3 06bc
00000060: 9254 edbc 8795 e33c 5fab e73c 5429 8c3c
00000070: c103 a0bd 9783 e63c a972 993d 9a5d ffbc
00000080: 81d1 97bd 0277 9f3d 1aec 513d 1215 5c3d
00000090: 67c4 3c3d 2916 603d 0955 8cbd f29a d0bc
000000a0: b39a 0c3d f298 013d 817a 803d 6526 54bd
000000b0: 66b1 243d 1cd9 59bd 4483 93bd f4c2 8c3d
000000c0: 8ca4 62bd 080b 353d b03a 6a3c 8680 9dbd
000000d0: 60ab a63d b104 333d 65b4 cdbc 63fc 643d
000000e0: b356 2e3d 9091 97bd 180d f13c d599 54bd
000000f0: 0956 babd b4f3 ee3c f616 72bd ea2d 673d
00000100: c879 a83d d732 2b3d 40f3 89bd 49f7 803d
00000110: 680a 523d a71d 9c3d f1de bcbc 6669 75bd
00000120: 86d6 ab3d d56a 923d 7fcb 553d 2b70 923d
00000130: ade8 56bd 2627 5e3c 6518 2bbd 42f5 a1bd
00000140: 2091 7cbd 613f 863d 6f89 a53d 62b0 5dbd
00000150: 2c80 803d cb51 593d efce 4a3b 039f b6bc
00000160: 0fb9 463d d63a 4fbd 5030 1e3d 5ad7 a1bc
00000170: 6435 6a3d 52e1 04bd adcc 62bd 2956 953d
00000180: 4810 51bd f91e 8e3d f357 45bd bcf5 a13d
00000190: 89f7 68bd da23 ae3c 461f b0ba 9945 9cbd
000001a0: 0eea e93c 69c4 113c 229c 703b b8fa 293d
000001b0: e7ea 9e3d c389 efbc eb79 773b 6699 763d
000001c0: ecd9 15bd 210f 0dbc 2449 913c 3d5b 90bd
000001d0: 0c8f f3bc fea9 9dbd 3347 443d c82b 4f3b
000001e0: 8c52 b5bd dcfc cb3d 1c16 a1bd 7733 60bc
000001f0: 55c0 cebc 21f7 a1bd 47f8 6cbd 0162 3e3b
00000200: 2828 803b 3cb3 9abd 123b 4f3c ae3c 4dbd
00000210: 2fa1 d03d 463b 5c3c 2c3b 8e3d c122 bd3c
00000220: 9f15 2bbd feac ec3c c2d8 0abc 33e1 8e3d
00000230: 03af b5bc be80 3fbd 1285 183d 0415 c9b8
00000240: c591 c73d ca85 51bc dcee 983d 17e1 673d
00000250: 2723 9d3d 194c e539 e5b3 f6bc 58a0 5bbd
00000260: 1d95 cbbc 3b7b b9bd fe0b 7a3d 7f7e 79bd
00000270: 3afd 5f3d c8c3 70bc 5dcd 7cbd ca98 0fbd
00000280: 4d35 353d 5dd5 663d ca06 133a fe5e 7b3d
00000290: 59bb bfbd 7a2e 953b 205e a83c afad 4b3d
000002a0: 2b15 903c 9d4f a73d 9646 8cbd 0430 153d
000002b0: 7ba5 b7bd ec29 ae3d 39bb e3bc cf34 5e3d
000002c0: aa48 903d 00fa 4cbd 47cf 68bc b9df cd3c
000002d0: 2d83 63bd f83c 6f3d 5958 463c 453d 8d3d
000002e0: a74e 78bd f100 d03c dbde 783d 2425 b8bd
000002f0: 9415 193d 50b5 4ebd 67c4 513d 0514 66bd
00000300: f148 be3c e0c8 00bd e785 043d 90d5 7b3c
00000310: 8648 02bc 0941 6f3d 117d bf3c 7575 ba3c
00000320: 62c2 1b3d 593d 9ebd 2f16 ab3d 4373 a2bd
00000330: 8eb3 383d da34 18bd 9648 8ebd b08a 6f3d
00000340: 2243 b7bd 8bb0 9dbc 5f59 803c df56 303d
00000350: 488c 903c 3b66 98bd 1505 213d 273d 6f3d
00000360: fdca 463d 8770 a53d 57fc 943d f2d0 ae3c
00000370: ede5 9ebd ec5f 90bd 7f8d ab3d ab44 9cbc
00000380: fe0c 0bbc 49b7 8ebd e9fb 8b3d 410c d6bd
00000390: b35d 5ebd 387e 863d f25f a1bd 271b 37bd
000003a0: 7d91 9a3d db6d 023d 20c9 5d3d 90b4 dfbc
000003b0: 069c 9e3d 5fb4 a5bc 1696 1ebd 05ac 4abb
000003c0: 6c34 463d e284 553d e3e4 74bd ad28 5d3c
000003d0: 084b a23d ab15 9bbc 49d0 9bbd d121 e1bc
000003e0: 92ac 8dbd 47ac 8f3d c631 303c b6c6 e83c
000003f0: 51f7 3a3d 314e 71bd 1040 af3c ca62 7fbd
0.096147135 -0.022549635 0.07207417 0.04612982 0.028660994 -0.07499151 -0.0033986922 0.0033588887
0.09168986 -0.08287899 0.08084945 0.02665314 -0.030715816 -0.05560491 -0.023673294 -0.0808748
-0.05624148 0.06038144 -0.06290336 -0.0027989685 -0.04000536 0.06697171 -0.01887554 -0.00821777
-0.02897099 0.027781261 0.028279958 0.01710955 -0.07813216 0.028138919 0.07492573 -0.031172562
-0.074130066 0.07786371 0.051250555 0.05373103 0.04608574 0.054708634 -0.06852157 -0.025464509
0.03432722 0.03164 0.06273366 -0.05179443 0.040208243 -0.053185567 -0.07202771 0.06873122
-0.055332705 0.044199973 0.014296219 -0.076905295 0.08138156 0.043705646 -0.025110433 0.055904757
0.04256315 -0.07400811 0.029425189 -0.05190452 -0.09098441 0.029168941 -0.05910393 0.05644027
0.08226353 0.04179653 -0.067358494 0.06297166 0.051279455 0.07622843 -0.023055525 -0.05991497
0.083905265 0.07149283 0.052196022 0.071503006 -0.05246799 0.013559138 -0.04177131 -0.07908107
-0.06166184 0.06555057 0.08082854 -0.05412329 0.06274447 0.05305652 0.0030946096 -0.02229262
0.04851633 -0.05059322 0.038620293 -0.019756008 0.057179824 -0.032441445 -0.055370975 0.07291824
-0.051040918 0.06939501 -0.048179578 0.07908198 -0.056876693 0.02125733 -0.0013437055 -0.07630462
0.028553989 0.0088969255 0.0036714156 0.04149887 0.07759648 -0.029240495 0.0037761878 0.060204886
-0.03658478 -0.008609564 0.017735071 -0.07048652 -0.029731296 -0.07698439 0.047919463 0.003161179
-0.08853635 0.099603385 -0.07865545 -0.013684145 -0.025238195 -0.07908464 -0.057853963 0.0029050114
0.003911037 -0.075537175 0.012648361 -0.050106697 0.10186993 0.013441866 0.0694488 0.023087861
-0.041768666 0.028891083 -0.008474531 0.06976547 -0.022178179 -0.046753637 0.03723628 -9.588341e-05
0.097446 -0.012788245 0.07467434 0.056611147 0.076727204 0.0004373498 -0.030115077 -0.053619713
-0.024851376 -0.090567075 0.061046593 -0.06091165 0.054684855 -0.014695115 -0.061719287 -0.03505782
0.044240285 0.056355823 0.00056086166 0.06136989 -0.093619056 0.0045526596 0.020552695 0.049726184
0.017588219 0.08169482 -0.06849401 0.036422744 -0.0896711 0.0850409 -0.027799236 0.05424958
0.070451096 -0.050043106 -0.014209575 0.025131093 -0.05554502 0.058407754 0.012106025 0.06896452
-0.060621884 0.025391074 0.060759407 -0.08991459 0.037374094 -0.05046588 0.051212694 -0.056171436
0.02322814 -0.03144157 0.03235426 0.0153707415 -0.007951861 0.05841163 0.023375066 0.022761086
0.038027175 -0.07726545 0.083538406 -0.07932141 0.04509311 -0.03715978 -0.069474384 0.058481872
-0.089483514 -0.019249221 0.015667615 0.043051597 0.017645016 -0.07441374 0.039311487 0.05840793
0.04853343 0.080781035 0.072746925 0.021339867 -0.077586986 -0.07049546 0.083765976 -0.019075712
-0.008486984 -0.069685526 0.068351574 -0.10451556 -0.054288577 0.06567043 -0.07879628 -0.04470363
0.07547281 0.031843048 0.054146886 -0.027307779 0.07744603 -0.02022761 -0.03871735 -0.0030925286
0.048389837 0.05212868 -0.059788596 0.013498467 0.07924467 -0.01893123 -0.076080866 -0.027481945
-0.06917681 0.07015281 0.010754054 0.028415065 0.045646016 -0.05891246 0.021392852 -0.062350072

rnn_module.gru.bias_hh_l0 f4 [384]
00000000: d5b6 edba 1959 9abd 3bde 9b3c 8ae4 81bd
00000010: 7404 a63d 9ba8 3e3d 3816 60bc ab3f dcbc
00000020: 2739 a03d 5158 123d c326 96bd ff4a 13bd
00000030: fdf8 9a3a 9fa8 0b3d 34f6 013d d4fa fe3c
00000040: 828f 85bd eaa5 8c39 00bb a4bc a2b7 17bc
00000050: de8b c0bc a71e 3cbc 4824 6a3d 5ecd 9ebd
00000060: 841c 3bbd 88ca 423d 618c 4fbd 79be 72bd
00000070: 9741 943d 559d 903c 8fb4 a73c c296 a23d
00000080: 2db6 15bd 1d0c c83c c2bf 9b3d 9a9e 7cbd
00000090: fb5e 62bd 4fe6 5bbd 8ae4 493d 108c 5fbd
000000a0: ed82 643d 890a c9bc c8d7 8dbc 6117 4bbd
000000b0: 3f9f b03d 9bfa a03d ef44 66bd f27e 3b3d
000000c0: 352c 86bd f8f5 863d 8487 61bd 022f 5b3c
000000d0: f318 653d 71d2 683d 9cf1 12bd 1cbf 61bd
000000e0: 5d57 97bd c066 073d 831f 9dba 4f86 64bd
000000f0: 816f 3e3d defb 753d 92b2 4cbd 5aac 263d
00000100: bf08 863c 3107 0dbd 19f2 6e3d 1305 823d
00000110: 554d 8a3c e72a a7bd b310 d3bc a337 ac3d
00000120: 8fee 523c dd40 5f3d 11d3 48bc f884 8dbb
00000130: aee2 1a3d 6177 4c3d e749 15bd 6037 833c
00000140: b7af 7cbc ed74 6f3d 3e61 09bd 2436 35bd
00000150: bf16 a13c 9814 993c 28cc b8bd 971b aa3d
00000160: a1c6 8abd e541 2abd b37b 99bd 3030 ef3c
00000170: f891 5dbd 16a0 94bd 3bf2 d53c 0c6d 0e3d
00000180: 747b e53c 1fd0 8fbc 0ed3 bb3c 04af a53c
00000190: 561f c03d e2a7 8fbd 0caa a93c a268 ab3c
000001a0: 3247 703d fc5e 52bd 576e 22bd 9a09 a73c
000001b0: 1c6b 2ebd fb8e c83b c2c7 bb3d 570d 47bd
000001c0: e503 38bd ae61 8e3d 9a1f 56bd 89b8 e1bc
000001d0: 06d2 3ebd 2172 f03c cbb9 4cbd 3808 b53c
000001e0: 01fd ed3c 46aa c23d 6ef8 96bd 5f78 9fbd
000001f0: dd44 033d e42d 753d 3bd0 a63d 7b43 683d
00000200: a667 af3c 7346 50bc 4e7f 3c3d c902 94bd
00000210: ed56 ac3d 77a6 91bd cece bd3d a9ec 7f3d
00000220: 7119 923d c5ad 77bd c37f 47bd 764d 4fbd
00000230: c1be cbbc 9735 0ebd 604b 7a3c 84a7 63bc
00000240: 25d0 293c fbf0 73bd 7d19 333d 870f 143d
00000250: 4041 7bbd f4f4 8a3d d00c b0bc 40a8 043d
00000260: 345d d33a 9644 9dbd bb6b 65bd aeb8 89bd
00000270: f745 c43d 3325 dd3b e533 b83c 4150 613c
00000280: 19e9 9abd 2ad7 e03a 7d3f b0bd c5e5 f8bc
00000290: e963 68bb 01e1 c1bc 1a5c 1cbc a3c4 033d
000002a0: 782f 313d 5f01 f1bc 053a 3b3d 7a16 b9bd
000002b0: 2326 453d 5689 d8bb 0a77 67bd e35d 55bd
000002c0: ba8f a73c ffa3 82bd b676 773d 5fbb 423d
000002d0: 0976 12bc 59b3 a5bd e17a fa3c 204d 553d
000002e0: 2ff5 86bc bf81 2fbc fb67 aabc 524f adbd
000002f0: 5335 923c b499 963d 1615 a5bd 0c41 ccbb
00000300: 7895 bdbc 81f2 2c3d 68fe f13b b4ad 8dbc
00000310: 56ae db3c c24d 39bd c9ae 103c f8b7 8a3d
00000320: bfe9 2dbd 10eb f83b be19 25bd 5de4 4c3c
00000330: bda7 65bd 2472 ae3d 76b7 153d 91ce b0bc
00000340: 6d31 843d 06d4 aebb 8890 d83c 9fe2 1e3d
00000350: 546a 4f3d 3a81 293d bc1c 9abd 158c 89bb
00000360: 6ffd 7c3b 7f5e 19bd 4af3 9cbd 9807 81bc
00000370: 57a5 9f3d 0bd7 6abd 5d2a 44bd aeae 3abd
00000380: 72c5 6ebd 52a4 60bd 7a93 3f3d d789 e3bc
00000390: d6c8 2a3d d004 87bc dd11 87bd a1b6 333d
000003a0: 2626 613d 4605 123d e964 7cbd 4a82 9e3d
000003b0: a6e4 073d 247b 15bd 8a32 0e3d 77d8 873d
000003c0: eb92 a03d 1f3b eabc ee7b 0abd 3e04 8e3d
000003d0: 5ac9 243a bf74 0dbd 941b 9cbd 3b54 03bd
000003e0: 1fad 3bbd 7dae 4dbd 5951 98bd 6b84 58bc
000003f0: 464f 053d 89dd 97bc dd5e 65bd a749 b53d
-0.0018136153 -0.07536525 0.019026866 -0.063424185 0.08106318 0.046547513 -0.013677172 -0.026885828
0.07823401 0.035728756 -0.07331612 -0.035960194 0.0011823472 0.034096356 0.03172894 0.031125464
-0.065215126 0.00026826496 -0.0201087 -0.00926009 -0.023504194 -0.011481917 0.057163507 -0.077540144
-0.04568149 0.04755643 -0.050670985 -0.05926368 0.07239073 0.017653147 0.02047184 0.07938911
-0.03655069 0.024419839 0.07604934 -0.06167469 -0.05526636 -0.053686436 0.049290217 -0.054576933
0.055788923 -0.024541156 -0.017314807 -0.049582843 0.08624124 0.07860299 -0.056218084 0.04577536
-0.065514006 0.065898836 -0.05506088 0.013377907 0.055931997 0.056841318 -0.035874948 -0.055113897
-0.0738971 0.033056974 -0.0011987541 -0.05579215 0.046493057 0.060054652 -0.049974985 0.04069171
0.016361592 -0.034430686 0.05833635 0.06348624 0.016882578 -0.0816248 -0.025764799 0.08409049
0.01287426 0.054505218 -0.012257353 -0.0043188296 0.037813835 0.049918536 -0.036447432 0.016017616
-0.015422753 0.05846112 -0.033540003 -0.044241086 0.019664166 0.018686578 -0.09023315 0.083060436
-0.06776167 -0.04156675 -0.07494297 0.029197782 -0.054094285 -0.072570965 0.026116481 0.034771964
0.028012969 -0.017555295 0.022927787 0.020225056 0.09380977 -0.07014443 0.020710967 0.020923916
0.058661647 -0.051360115 -0.03965601 0.02039032 -0.042582616 0.00612056 0.0916896 -0.048596706
-0.04492559 0.06952225 -0.05227623 -0.027553814 -0.046587013 0.029351296 -0.049981873 0.022098646
0.029051306 0.09505133 -0.07371603 -0.07786631 0.032048095 0.059858218 0.081451856 0.05670498
0.021411728 -0.012712109 0.046019845 -0.07227094 0.08415017 -0.07111829 0.092679605 0.062481556
0.07133759 -0.060468454 -0.048705827 -0.050610982 -0.024871232 -0.034719076 0.01527676 -0.013894919
0.010364567 -0.05955599 0.04372548 0.03614762 -0.061341524 0.06785002 -0.021490484 0.03238702
0.0016125799 -0.07679097 -0.056010943 -0.06724678 0.09583657 0.0067488193 0.022485683 0.013752044
-0.07563991 0.0017153968 -0.086058594 -0.030383 -0.0035459942 -0.02366686 -0.009543443 0.03216995
0.04325816 -0.0294196 0.04570963 -0.0903749 0.048132073 -0.0066081686 -0.05651001 -0.05209149
0.020454276 -0.06378936 0.060415946 0.047541972 -0.008939275 -0.080908485 0.030576171 0.052075505
-0.016474335 -0.010712086 -0.020801535 -0.08462395 0.017847693 0.07353535 -0.080606624 -0.00623334
-0.023142561 0.042223457 0.007385064 -0.017294742 0.026816528 -0.04524017 0.0088307345 0.067733705
-0.042459246 0.007596381 -0.040307753 0.012505618 -0.05606817 0.08517864 0.036551915 -0.021582874
0.0645474 -0.0053353338 0.026436105 0.03879034 0.05063851 0.041383006 -0.07525012 -0.0041976073
0.0038603207 -0.037443634 -0.07663591 -0.015750691 0.07795208 -0.057333987 -0.047891963 -0.045576744
-0.058293767 -0.054844208 0.046771504 -0.027775688 0.04169544 -0.016481787 -0.06595204 0.04387534
0.05496802 0.03564956 -0.061619673 0.077396944 0.03317704 -0.03649439 0.034716167 0.06633084
0.078405224 -0.028592644 -0.033809595 0.06934403 0.0006286107 -0.034535166 -0.076224476 -0.03206275
-0.045819398 -0.050215233 -0.07437391 -0.013215165 0.032546304 -0.018538253 -0.05599867 0.08851939

rnn_b_module.gru.weight_ih_l0 f4 [384, 128]
00000000: 100e 5a3c 393c b83b 83e4 7e3d 108d c3bb
00000010: 01d7 7b3c a8bd 7e3d 9408 693d 36e5 5a3d
00000020: fe84 073b cadc bfbd 6e47 52bd 23cd b13c
00000030: 0992 503d 98a8 a7bc 8f8c 0abd 4045 423d
00000040: 696b c6ba 9f29 55bd 4515 ba3c 5674 12bd
00000050: 0fb1 4cbd 90eb c33c 1eea 54bd 4c3e 36bd
00000060: 7ca9 08bd 391f 86bd c059 b53d 4dad 3cbd
00000070: bde1 46bd 009b 35bd d9e8 06bb f35e c83a
00000080: a7ed 463c f1c4 2ebc 4e7f 9bbd a763 b93b
00000090: 6518 89bd f693 bfbb d93b b13c fb61 d0bc
000000a0: 3fbe 99bd d796 9b3d 7f7f 863d aa1e 963d
000000b0: 8174 853d fec6 4fbd 0243 88bd e1c1 56bd
000000c0: c2bf 883d bced 90bd 1992 20bd 9e26 cdbb
000000d0: d70a c33d 50da 9ebd 3bb4 d13d fa89 84bc
000000e0: fa15 85bd e4f6 d2bc 09a7 863b a43d 59bd
000000f0: 079a a1bd 5cd7 7abc 3f3d a33d 497e 933d
00000100: 1a12 463d b629 793c e933 343d 12e7 543d
00000110: 92ea 353d ec16 3a3d c716 13bd 04fc a63d
00000120: 5a7c 4e3d 7833 4e3c 2216 9c3d beaa 783d
00000130: e0d2 813d 0d0b 98bd 3389 8abd 35c8 323d
00000140: bf22 753c 4e37 f0bc ee3a 7abd f90f b83d
00000150: 98b6 a5bc 04f9 933d 2bae 853d 3fa3 883c
00000160: 7cf2 cf3d 05ad 93bd df6a ed3c 3e41 073c
00000170: 0ffc b8bd 35cc fc3c ab39 d73c 7f4e 38bd
00000180: 3ee7 8a3d b23d 7f3c 9e8c fabb fdb4 b5bb
00000190: 3ac8 bb3d 3b10 753d bd8e 32bd 801b 683d
000001a0: c673 843d 6666 0ebd 78b3 9b3c 5214 a3bc
000001b0: 9860 8a3d c80c 0f3c 56f6 11bd 26cd 94ba
000001c0: af46 85bd 1b23 18bd a8d7 8b3b ab20 ecbb
000001d0: 1f8c c23c 143a 4cbd 3a9a 5e3d 97ed a5bd
000001e0: feb6 573c 4814 73bd 3102 f63a 2c04 23bd
000001f0: fb0f 12bd a1e8 93bd cdb2 89bd 65dd 213d
00000200: 9bbf 053d 823a 45bc 9e8d 4e3d cb69 19bc
00000210: 7f13 94bc 95ee 253c eb0d 083d 84ce adbd
00000220: 9992 6c3d 0d6d aabd 3e2e b5bc 5e1a c53c
00000230: 9b54 a0bc 0473 8d3c cba3 21bd add7 843d
00000240: 5ac8 58bd 08f3 8f3d 23fd 80bd 5331 823c
00000250: 6d0f 1d3d 2517 65bd eb47 893c 9419 acbc
00000260: 9005 a73d 3a6b 3f3d 1224 8bbd c789 cabc
00000270: 0895 5c3d d2d3 73bc 2f1a 0fbd 24d7 9b3d
00000280: a18b 963d 5953 503d 13e2 56bd b10a 5f3d
00000290: 9010 2bbc d5ed 653c 83b1 743c bbb2 183d
000002a0: b5a0 c0bd f6a4 37bd 284d 26bd a4e2 3fbd
000002b0: eaf8 14bc 8d1d 50bd d2d2 bebd 2308 dcbc
000002c0: 1387 dbbc 7ec6 33bd 051e 4abc 9019 a9bb
000002d0: b507 88bd 6445 8dbc 9f33 4ebd 270b 8e3d
000002e0: f8d9 81bd 952e 61bc e68e 2bbc 98b1 023d
000002f0: 54a7 8abd b462 90bd f450 3d3d ffbc a2bc
00000300: 3d07 e93b 75f7 88bc 5b54 89bd 6b8c b03d
00000310: 6608 afbc db10 49bd ad8c b03c 96fc 03bd
00000320: 2075 723d b4d7 91bd 53f4 3f3c b9e4 803a
00000330: ff3e 443d 0853 a4bd 28de ec3a 2769 293d
00000340: 7e9e 3f3d 1e59 9d3d 95ae b2bd cbbb 3a3d
00000350: fc63 8bbd 151a 963d 3793 f2bc 1bd6 84bc
00000360: c1a6 b3bd a93c adbd e86d d6bc 32eb cabd
00000370: 9607 acbc be3d 963d 4876 f3bc 46ac bcbc
00000380: 763f 7bbd ee88 b33d 48ee 933b ccf3 673d
00000390: ce05 78ba 6d88 64bd b6ac 05bd 2a06 3fbb
000003a0: 9251 b4b9 b799 a23d 6725 ae3d 7b59 53bd
000003b0: 394e 91bd 4144 583d 04a0 943d 4250 7fbd
000003c0: fe0c 57bc 6782 923d c979 63bd d551 82bd
000003d0: d820 9d3d de1e dfbc f050 babc 2724 de3b
000003e0: 0b2c 8bbd 38cc 97bc 9d72 b9bc 7ef0 d4bc
000003f0: 726b ae3c be1f 823d 8236 5e3d 06e3 80bd
0.013309017 0.0056224135 0.062229645 -0.0059677437 0.015371085 0.06219259 0.056892946 0.05344125
0.0020678635 -0.09368284 -0.051337652 0.021704262 0.05092052 -0.020466134 -0.033825453 0.047429323
-0.0015138212 -0.052041646 0.02271522 -0.035755478 -0.049973544 0.023916036 -0.051981084 -0.044493005
-0.033364758 -0.06548924 0.08855009 -0.04606371 -0.048555125 -0.044337273 -0.0020585565 0.0015287086
0.012141622 -0.010667072 -0.07592641 0.0056576314 -0.06694106 -0.0058464957 0.021634983 -0.025437346
-0.0750699 0.0759713 0.06567287 0.073300675 0.06516362 -0.050726883 -0.06653406 -0.05243099
0.066772 -0.07076594 -0.03920183 -0.006260707 0.09523552 -0.077564836 0.10239454 -0.016179074
-0.06498332 -0.025752492 0.0041092676 -0.0530373 -0.078907065 -0.015310135 0.07970666 0.07201821
0.048357107 0.015207699 0.043994818 0.05197818 0.044413157 0.045432016 -0.035910394 0.08153537
0.05041156 0.012585513 0.07621409 0.060709707 0.06339049 -0.07423983 -0.0676445 0.043647964
0.014961897 -0.029323246 -0.061091356 0.089874215 -0.020228669 0.0722523 0.065273605 0.016679404
0.10153672 -0.07210735 0.028981624 0.008255301 -0.09032451 0.030859092 0.026272615 -0.044996735
0.06782387 0.015578674 -0.0076461574 -0.005545257 0.091690496 0.05982993 -0.043593157 0.05666685
0.064673945 -0.034765624 0.019006476 -0.01990715 0.06756705 0.008731075 -0.035635315 -0.0011352643
-0.065076225 -0.037142854 0.0042676516 -0.0072060428 0.023748456 -0.049860075 0.0543463 -0.08101957
0.013166187 -0.059345514 0.0018768964 -0.0397989 -0.03565977 -0.07222105 -0.06723557 0.03951778
0.032653432 -0.012037875 0.050428025 -0.009363602 -0.018075703 0.010127683 0.0332164 -0.08486655
0.057756994 -0.08321581 -0.022116777 0.024060424 -0.019571593 0.017266758 -0.039462846 0.064864494
-0.052925445 0.070287764 -0.06298282 0.01589266 0.03834479 -0.055930275 0.016757926 -0.02100829
0.08155358 0.04673312 -0.06793989 -0.0247239 0.053853065 -0.014882045 -0.03493708 0.07609394
0.07350851 0.050860737 -0.052461695 0.054453555 -0.0104409605 0.014033754 0.0149349 0.037279826
-0.094056524 -0.044835053 -0.040600926 -0.046847 -0.009092549 -0.05080943 -0.093175545 -0.026859349
-0.026797807 -0.04389047 -0.012336259 -0.005160518 -0.06642095 -0.017245002 -0.0503422 0.06935721
-0.06340402 -0.013744016 -0.010471081 0.031907648 -0.067701966 -0.07050076 0.04621978 -0.019865511
0.0071114586 -0.01671956 -0.06705543 0.086205326 -0.02136631 -0.04908834 0.021551454 -0.032223307
0.05919373 -0.0712122 0.011715966 0.000983379 0.04791164 -0.080236495 0.0018071579 0.041360047
0.04678201 0.076830134 -0.08724705 0.04558925 -0.0680618 0.073291935 -0.029611213 -0.016215375
-0.0877204 -0.08458836 -0.026175454 -0.09908141 -0.020999711 0.07335995 -0.029719487 -0.023031365
-0.061339818 0.08766352 0.0045144893 0.056628987 -0.0009461314 -0.05579417 -0.032635413 -0.0029147961
-0.0003439305 0.07939475 0.08503228 -0.051599007 -0.07094998 0.052799467 0.07257083 -0.0623324
-0.013125656 0.071537785 -0.055536065 -0.063632645 0.0767228 -0.027236398 -0.022743672 0.006779212
-0.0679551 -0.018529996 -0.02263766 -0.025993582 0.021291468 0.063537106 0.0542512 -0.06293301

rnn_b_module.gru.weight_hh_l0 f4 [384, 128]
00000000: c244 1b3d 32f5 013d 2c07 3f3d 04e0 4bbd
00000010: 195a c4bd ad90 5a3c 2113 b53d dce8 7cbd
00000020: 2617 5abd b151 ccbc dbdd a23d e534 983c
00000030: 1ced 043d 6f53 ae3d 2252 8ebd 654d 83bd
00000040: 52d5 63bd c1ae 833d 6a59 66bd 9e4c 033d
00000050: fdcf 123d 5226 8c3d 9a6f 47bd e72e 863d
00000060: 4ccd 84bc 7401 3b3b a041 92bd 493e 6abd
00000070: a1fb abbc 1142 73bd 9231 26bd 1c59 2f3b
00000080: d67e 7a3d 1248 113d 6fe7 45bd 4715 b7bb
00000090: 7588 8abd f61d b73c 48b8 7b3d 0f21 9c3c
000000a0: 6dfb 56bd 7c4a f3bc d8c8 d93b d114 94bd
000000b0: 1b42 0b3d aa0c 493d bdf0 a7bd 9962 84bc
000000c0: 9d69 a2bd a4c4 813d 2672 0abd c442 bc3d
000000d0: a31a 1a3d 4aeb 1c3d ff6c 8f3d f2c1 693d
000000e0: 712b 783a aee1 9d3d 6003 583d e90c fe3c
000000f0: f3f7 f53c 284e 603d b2d8 1abd 1b5a 4a3d
00000100: 3404 3a3c f3f5 0f3d 97e1 8d3d f947 963d
00000110: 11ed 723d c8f3 233d abf0 693d 8179 c13d
00000120: eebd 823d 75be 7b3c d052 d13c b037 223d
00000130: 61ea 50bd 4276 70bd f9ba 5dbd 8bea 9d3d
00000140: 623f e1bc cfdb 81bd 2d5a febc 435a 8ebd
00000150: fd1f 5d3d 2530 7a3d 81c5 1fbd 7016 a5bd
00000160: f1a2 b3bd cbe5 f03a 40fe f3bc ef91 4a3c
00000170: 6f66 513b 854f 1d3d df44 c93c a539 99bd
00000180: 8907 a73d ed16 88bd 11bc adbd 00f8 9ebd
00000190: af32 24bb f26b a93c 583a 0b3d e152 b23d
000001a0: 1fe5 393c 931c ad3d 1162 01bc ab07 71bb
000001b0: 5274 7ebd bc7f 0ebd 350f 91bd 4038 b2bd
000001c0: 69d6 443c ab4c 9a3d 7191 f63b bb51 b8bd
000001d0: 8663 883b 1499 f03c 03d5 983d c331 9ebc
000001e0: d3c2 92bd 778e 0b3d d5aa 82bc d4a0 8bbd
000001f0: ccd8 aa3d c9e9 6f3d d4f9 87bd 8b4f 823b
00000200: c81d 8e3d 28c3 7d3d 4d2e 9d3c 3b5b 63bd
00000210: 0518 1cbd 2e97 073d 3ad7 a7bd 086f a43d
00000220: 0ad1 8bbd b1d8 0ebd fefd 883d f429 4c3d
00000230: 383b b1bd a09c 463d 37a6 93bd e5c3 94bc
00000240: ad03 77bd 7e04 113c 9619 aebc 2c5f 61bd
00000250: 2b67 98bb bf48 a93c d7fc a63b 864f 293d
00000260: c87f 08bc 0f8f 9e3d 12f9 403c 4dd5 113d
00000270: 6f31 a7bd 6309 0c3c 60b2 72bd 25f2 033b
00000280: 40f8 4e3d 1d67 15bd 473f f43c 27c1 43bd
00000290: 12d5 3b3d 40b6 f43c 0d58 64bd 22d6 0bbd
000002a0: 9a26 67bd c7e9 943d d83a 1cbd 3160 afbb
000002b0: 8987 72bd 6b5f 2e3c 8f04 9dbd bb47 74bd
000002c0: be80 773d f2d5 5f3d 7e9e 23bd 42b7 3dbd
000002d0: 494f cb3c 4712 ae3c ecb8 813c 34fa 5dbd
000002e0: c825 9ebd 635d 423d 0021 a03c 5438 ffbb
000002f0: 7485 2a39 e0b9 273d 8d0f e8bc 1af0 1bbd
00000300: ae56 a73d 9fa3 ccbd a990 c33d fb4a 83bd
00000310: 9c66 2bbd 864d c13d bed0 8fbd 7b55 69bc
00000320: a97a 983d 6e3c 8e3d ca52 7cbd 9c37 4bbd
00000330: 8b4f fe3c b927 b63c 11b5 43bd 5dce 43bd
00000340: b852 6e3d 1c1d a13d ef70 7ebd ee5c 21bc
00000350: b779 9f3d ff72 6fbd b04a 54bb e8b0 903c
00000360: 0aed 7dbd 0f54 22bd 520b bfba f384 5abd
00000370: 7cb0 25bd 0c57 5c3d 1e2e 29bd a665 8ebd
00000380: 21ee 003d 26f4 853b b308 013d 45bf 943b
00000390: 38ca 423d ef0a 9e3d 9693 8ebd 84e8 883d
000003a0: d65f 4dbd 8fd8 35bd beb3 893d 8e2d acbd
000003b0: ee0c a63d 1ca6 3f3d 41c2 013b ffb6 0c3d
000003c0: a13f 97bd dd0e ba3d 59af ed3c 5c13 873d
000003d0: 44f5 91bd 3238 4b3d 97e0 82bd 9ef6 b83c
000003e0: b72a c2bc b61b 853d 7038 9c3d 5cc1 b43d
000003f0: 7eca ebbc c962 28bd 4d23 7abd 2675 69bd
0.03790737 0.031727977 0.0466377 -0.049774185 -0.09587497 0.013340157 0.08841539 -0.06174551
-0.053244732 -0.024941297 0.07952472 0.01857991 0.032452688 0.085120074 -0.06949259 -0.06411246
-0.05562336 0.06429816 -0.056237616 0.03205549 0.035842884 0.068432465 -0.048690416 0.06551915
-0.016211174 0.0028534802 -0.07141423 -0.057188306 -0.02099401 -0.059389178 -0.040574618 0.0026755994
0.061156116 0.035469122 -0.048316415 -0.0055872533 -0.06764308 0.022353154 0.06145504 0.019058732
-0.052485872 -0.029698603 0.006646257 -0.07230533 0.03399859 0.049084343 -0.08200214 -0.016160296
-0.079303004 0.06336334 -0.033800267 0.09192422 0.03762306 0.038310327 0.07003211 0.057069726
0.00094669225 0.077090606 0.052737594 0.031012015 0.030025458 0.054762036 -0.037804313 0.049402338
0.011353541 0.035146665 0.069277935 0.073379464 0.059308115 0.04002741 0.057114284 0.09447003
0.063838825 0.015365233 0.025552183 0.03960389 -0.05100477 -0.05870653 -0.05413339 0.07710751
-0.027496044 -0.06340753 -0.031048859 -0.0695081 0.053985585 0.06108107 -0.039006714 -0.0806092
-0.08771313 0.001837903 -0.029784322 0.012363895 0.0031951924 0.038405914 0.024568973 -0.07481698
0.08155734 -0.06644998 -0.084831364 -0.07762146 -0.0025054624 0.020681355 0.033991188 0.08707214
0.011346131 0.08452716 -0.007896916 -0.0036778252 -0.06212265 -0.034789786 -0.07082979 -0.08702135
0.01201401 0.075341545 0.007524662 -0.08999964 0.0041622547 0.029369868 0.07462504 -0.019310838
-0.07166066 0.034071412 -0.0159506 -0.06817785 0.08342132 0.058572564 -0.06639448 0.0039767674
0.06939274 0.061953694 0.019187117 -0.055506926 -0.038108844 0.03310316 -0.08195348 0.0802899
-0.068269804 -0.03487462 0.0668907 0.049844697 -0.08653873 0.048489213 -0.07209437 -0.018159816
-0.06030624 0.008851169 -0.021252435 -0.055022404 -0.0046509705 0.02066457 0.005096059 0.041335605
-0.008331247 0.0774213 0.011778133 0.03560381 -0.081637256 0.00854716 -0.059252143 0.0020133343
0.05052972 -0.03647529 0.02981533 -0.047791626 0.045857497 0.02987206 -0.055748034 -0.03413976
-0.056433298 0.07271152 -0.038142055 -0.005352043 -0.059211288 0.010642867 -0.07666885 -0.05963872
0.060425512 0.054647394 -0.03994607 -0.046317346 0.02481808 0.02124895 0.015835248 -0.05419369
-0.0772205 0.04745234 0.019546986 -0.0077886973 0.00016262179 0.04094875 -0.028327728 -0.038070776
0.0817083 -0.09992146 0.09549076 -0.06410786 -0.041845903 0.094386145 -0.07022236 -0.014241572
0.074452706 0.0694512 -0.06160239 -0.04961358 0.031043788 0.022235738 -0.0477801 -0.047804225
0.058184355 0.0786688 -0.06211942 -0.009848816 0.07786887 -0.05845928 -0.003239315 0.01766248
-0.061993636 -0.039630946 -0.0014575517 -0.053349447 -0.04045151 0.053793952 -0.041303746 -0.06952982
0.031477097 0.0040879427 0.031502437 0.0045394027 0.047556132 0.07716929 -0.069617435 0.06684974
-0.050140224 -0.04439598 0.06723736 -0.08407126 0.08107935 0.046789274 0.0019799622 0.034354206
-0.07385183 0.09084866 0.029014276 0.065954894 -0.07126859 0.04961414 -0.06390493 0.022578534
-0.023702009 0.06499426 0.07627952 0.08825943 -0.02878308 -0.041109834 -0.06106882 -0.056996487
