retain/save/RNN.pt (torch_old, 419056 bytes, 6 tensors)

emb f4 [41, 128]
00000000: 44f4 94bc 914f 473d 8f25 9eb9 fae2 a83a
00000010: d541 a9bb f1a0 223d 0f9e bcbd 665f 1e3d
00000020: 2caa bebd b66f f5bb 979f 0d3d e952 c0bc
00000030: 4dcd 043d 759e 7cbd 0869 413d ea7d 83bd
00000040: 59a4 b43d 6289 5cbd b693 033d fd70 1f3d
00000050: f169 8cbd 3617 f13b ea8c a4bc 7d34 af3d
00000060: b079 613d b3ea 70bd ef57 c6bc c59f 2a3d
00000070: 789d c3bc cf25 41bd 8bc4 863d b5bd 923d
00000080: 5870 3e3d 1af7 18bd bb1b 6a3d 7f09 87bc
00000090: 96d7 493c a9a7 903b 4237 1e3d a1d3 b9bd
000000a0: 7c1e 63bd d672 25bd 8256 ebbc 9110 a2bc
000000b0: f462 59bd e879 b7bd 0cd6 cebc 2cfd 1bbc
000000c0: 5d8c 84bd fd1d 0ebc d51c c13b 6441 9fbd
000000d0: 119b aebb 728e 6dbd 42ba 663d 3049 89bd
000000e0: 53eb 3ebc f505 b2bc 679b f03c 0193 96bd
000000f0: 2701 94bd 3135 313d 59d4 04bd e481 df3b
00000100: 7bd1 91bc 3c36 9cbd 731a b43d 9370 f8bc
00000110: 8ca1 0ebd b81a 4e3c dbd3 d5bc b8ce 9f3d
00000120: 6bee 81bd 1c50 3d3c 089d 7a3a 35ab 2e3d
00000130: f239 61bd da3b 3dba 0cf2 3c3d 09ec 4b3d
00000140: 4460 b03d 0f89 b6bd 9bb0 263d e8f9 9dbd
00000150: 41b9 7a3d c47c aabc cbb7 85bc dd68 a2bd
00000160: d4d2 a2bd 883c 14bd 1752 a4bd 9589 8bbc
00000170: 4cb2 8f3d a063 11bd f0f0 bcbc a391 5dbd
00000180: 298f ba3d c456 7e3c fe7d 5b3d 52ee 68bb
00000190: ae2a 8abd ae11 07bd 699f 8bbb ad79 05bc
000001a0: 3f4c a23d e648 953d 3b47 7cbd 20cd a7bd
000001b0: e794 403d 1232 993d 80f8 56bd 6942 08bd
000001c0: 4330 823d ead9 38bd 673f a1bd 9def 913d
000001d0: dde4 c8bc a5bd 75bc 1f0c 653c d131 83bd
000001e0: 590c 99bc a64c 15bd a98f f4bc 9a62 213d
000001f0: bbed 833d 3c23 313d ffeb 4cbd 2261 27bd
00000200: 3c14 9abd 97d7 1cbd c5c5 043d 5666 1d3d
00000210: df26 283d 9439 60bd 3036 833c 665b feba
00000220: 6d90 43bd 19eb a83d 014e b23d d3ab 8dbd
00000230: 3cb1 d33c 4fbf 9e3d 066c 8e3d 66a9 88bd
00000240: fe11 c6b9 55c4 cfbc 3c08 1dbd 3d74 843d
00000250: 069e 2f3d 2245 7ebd 866b a83d 113c 4f3d
00000260: 637f 5f3d 8b94 4e3b 0202 a03d 6c1b 063d
00000270: 51b9 56bd a4b2 873c 5453 94bc a16c 97bd
00000280: 120f 66bc dbc1 9dbc 3015 5f3d 8667 73bd
00000290: bc00 063d 7aac 5cbd f725 5eba aa62 74bd
000002a0: 2d5c 863d 16a0 f2bb 1205 893d ad85 ef3c
000002b0: 0e09 0fbd 752f e1bb 412e 373c 9363 4c3d
000002c0: 0558 973d 639a 4d3d 15bd 12bc e657 fe3c
000002d0: 700c 6c3d 5d65 5abd 6d86 4a3c f98a a5bd
000002e0: c1a2 ee3c 6a7b dc3c eb9f 923d a8f1 79bc
000002f0: 6115 863d 1a5b b13d a3d7 fd3c f7ff a9bb
00000300: a899 b73d d755 b13d 6c71 c43c 1aa4 f0bb
00000310: a7eb 803d 8f6d b23b 547f a73d 749a 3e3b
00000320: bcc0 0e3a a0ae be3c 33af 94bd 5f43 e83c
00000330: 2af4 bc3d 9d77 ba3c 596c a33d e4f1 573d
00000340: 65ca 933d 2dda 5d3d f32e 57bd 1cca 2ebd
00000350: 844c 7f3d 2b0d 79bc 5e7a fdbc a84f f7bc
00000360: 4bab a03d 76f4 03bd 50ce 5ebd 4f13 b2bd
00000370: cfcf 60bd 0cc5 97ba f8e9 32bd 359c 9f3d
00000380: 8d49 78bd a7bd b5bc 9ca8 693d 1052 81bd
00000390: 3a22 afbd d559 a3bd 5fee 8a3d 1ca7 6c3d
000003a0: 4c01 803d 8ac0 013d 0908 69bd 244c 84bd
000003b0: 2d54 adbd 4c85 91bc 2987 243d 5346 b1bd
000003c0: b09e b4bd d441 033d af98 fa3c 2943 53bd
000003d0: 5baf 98bd b22f 29bd a56f 9e3d 3e33 2e3d
000003e0: 262a 9dbd b41e 15bd 4ffb d6bc 4339 5a3d
000003f0: b149 443d 8796 9b3d 7706 393d c555 3dbd
-0.018182881 0.048659865 -0.00030164092 0.0012885027 -0.0051653185 0.039704267 -0.09209835 0.038665198
-0.093098015 -0.0074901236 0.034576025 -0.023477035 0.032422353 -0.061674554 0.047219306 -0.064205006
0.08820409 -0.053841956 0.03212329 0.038926113 -0.06856144 0.0073575033 -0.020086724 0.08554933
0.05504769 -0.058817577 -0.024211852 0.041656274 -0.023878798 -0.047155198 0.06580456 0.0716509
0.046493858 -0.03734503 0.057155352 -0.01648402 0.012319466 0.004414518 0.038626917 -0.09073568
-0.055448994 -0.04039272 -0.028727774 -0.01978329 -0.053072885 -0.08958799 -0.02524855 -0.00952081
-0.06472085 -0.008674142 0.0058933296 -0.07776144 -0.005328544 -0.057997175 0.056329973 -0.067034125
-0.011652785 -0.021731356 0.029370977 -0.073522575 -0.07226782 0.043263618 -0.032429073 0.006820904
-0.017800083 -0.07627532 0.08794107 -0.030327117 -0.03482203 0.012579612 -0.026101997 0.078031
-0.06344303 0.011554744 0.00095601426 0.042643744 -0.0549869 -0.00072186964 0.04612927 0.049785648
0.08612111 -0.089128606 0.040695768 -0.077136815 0.06121183 -0.020811446 -0.01632299 -0.07930157
-0.079503685 -0.03619054 -0.0802347 -0.017033378 0.07016429 -0.0354954 -0.023064107 -0.054093968
0.09109337 0.015523616 0.053586952 -0.003554244 -0.06746422 -0.032975845 -0.0042609465 -0.008146686
0.07924699 0.07289295 -0.06159137 -0.08193421 0.047017004 0.07480253 -0.05248308 -0.03326646
0.063568614 -0.045129694 -0.07873421 0.07125781 -0.024523193 -0.014998828 0.013979941 -0.06405986
-0.018682646 -0.03645005 -0.029853659 0.039400674 0.06441828 0.043246493 -0.05002975 -0.040864117
-0.07523391 -0.03829154 0.03241517 0.038427673 0.041052695 -0.05474241 0.01601705 -0.0019405901
-0.047745157 0.08247966 0.08706284 -0.069175385 0.025841348 0.07751333 0.069541976 -0.06672935
-0.00037778908 -0.025362173 -0.03833793 0.06467483 0.042875312 -0.06207765 0.082236335 0.050594393
0.054564845 0.0031521644 0.07812883 0.032740995 -0.052422825 0.016564675 -0.01810614 -0.07393766
-0.014041679 -0.019257477 0.054463565 -0.0594249 0.032715544 -0.053875424 -0.0008474285 -0.059664406
0.0656055 -0.0074043376 0.0669042 0.029238546 -0.034920745 -0.0068721124 0.011180461 0.04989965
0.07389835 0.050196063 -0.0089562135 0.031047773 0.05762905 -0.053319324 0.012361151 -0.080831476
0.029130341 0.026914317 0.07159408 -0.015255369 0.065470465 0.08659954 0.030986613 -0.005187984
0.089648545 0.08658951 0.023979865 -0.007343781 0.06294947 0.0054451893 0.08178583 0.002908376
0.000544559 0.023276627 -0.07259979 0.028352438 0.09226258 0.022762114 0.0797965 0.05272092
0.07216338 0.054163147 -0.05253501 -0.042673215 0.06232883 -0.015200893 -0.030942138 -0.03018935
0.078451715 -0.032215558 -0.054395974 -0.08695089 -0.05488568 -0.001157911 -0.04368016 0.07793466
-0.06061702 -0.02218516 0.057045564 -0.0631448 -0.0855145 -0.079761185 0.06783747 0.057776555
0.06250247 0.03167776 -0.05689243 -0.06459835 -0.08463321 -0.017763756 0.04016796 -0.086559914
-0.0881933 0.0320452 0.030590383 -0.05157772 -0.074553214 -0.04130525 0.07736138 0.042529337
-0.07674055 -0.036406234 -0.02624288 0.053277265 0.04792184 0.0759707 0.04517218 -0.046224374

rnn_module.gru.weight_ih_l0 f4 [384, 128]
00000000: a22f 9abd a885 903b 8239 eb3c 8791 7bbd
00000010: ea69 58bc 924a d1bc df08 1abc 5653 013d
00000020: 10f4 073b 5d01 0dbc d523 26bd c813 16bd
00000030: 1b08 493d cafa 78bd e50f 80bd 228e bbbd
00000040: 4049 973d 34aa eb3c 3df6 91bd d72c 863d
00000050: 0c04 1e3b 3981 853c b700 0bbd 7d62 7dbd
00000060: b06b 673d ece2 2dbd 07cc 28bb 240e 24bd
00000070: fb72 693d 3d5b 733d 988c 023d 0665 a93c
00000080: 1a98 933d 181f 0dbd 864e 9b3d b2e8 ed3c
00000090: c152 473d 81f7 9a3d 8c8d 873d 1907 ba3b
000000a0: b07e b1bd 4076 5dbd fb41 483d 6697 723d
000000b0: 376e 92bd 7ecd 51ba a4e9 85bd e586 4d3d
000000c0: 844e 5a3d 3db7 b83d df9f 43bd c2b4 8cbd
000000d0: 0180 30bd ea77 d13c 510c 96bd 826c 30bd
000000e0: 348c 6c3d 99b5 91bd e28b c63c 3568 6c3d
000000f0: 0b31 ee3b 46e3 da3c a663 3e3d 2537 6a3c
00000100: 8e90 fabc 53c8 d83b de73 913c 94f2 653d
00000110: 089e ac3d ba73 213d 1bea 6ebb b3e3 9e3c
00000120: 928b 5f3d a012 e8bc cc58 84bb 96c4 53bd
00000130: b30c 8d3c 8b30 283c b4af 063d d774 00bd
00000140: ba01 99bc da7e f8bc 0879 2bbb 7c22 08bd
00000150: bb90 b93c 34de 163d d053 46bd f5b7 963d
00000160: 8f2f 513d dc77 9a3d 1c33 383d a48a 323d
00000170: 4a3d b2bd 80d1 0fbc 6a08 853d 48e9 293d
00000180: ef47 11bd 18a5 2ebd 022a e03c a8d7 e83c
00000190: a9b3 7b3d 55a9 72bd 97a8 e1bc fab9 9d3d
000001a0: 66ab a7bd 3f91 813d 41e4 843d c9fc a8bd
000001b0: 7237 d5bc 3e48 523d 2b8d 873c e34e e4bc
000001c0: e3e0 863d 9620 45bd c1f6 ea3c 863e 953d
000001d0: 4eba 5c3c 89f3 a9bd c769 9c3d 1a3f a23d
000001e0: daa5 20bc a3bc 99bd 61a6 8d3d 56dc 80bd
000001f0: 2a1f 54bd cd91 813c ec47 783d 7c04 55bd
00000200: 1e71 09bd 98d4 09bd 15c9 203c 9f22 6e3d
00000210: f4ee 843c e58c 80bd 718f 4b3d e226 f03c
00000220: ea40 48bd aefc 8f3d a518 67bd 5506 893d
00000230: f14a 2bbd 0b94 713d 633b 20bb 5de9 1dbd
00000240: c9de 7f3d 3ae2 67bc 7635 9c3c 1c16 09bd
00000250: 1e6b 03bd 67d2 b8bc 8263 e3bb 2983 9b3d
00000260: 6de0 37bd d040 9bbd 6c45 c83c 510d 9c3c
00000270: d69e a43b 4393 4f3d 189b a4bd 5f75 88bd
00000280: 3688 bfbb 3021 59bd 0a73 cb3a 1e2b ee3a
00000290: c674 7a3d 384d 8abd fe91 94bd c78e 81bc
000002a0: 5a33 7c3b c617 063d 5685 1a3d fdd8 80bc
000002b0: 84d1 a73d a03b ab3d a406 56bd 7c8c 0a3d
000002c0: e994 28bd a8ef 4cbd f61b 923c 7477 a7bd
000002d0: 02ae 893d 0fea 473c bfe4 9bbd 4c6f fcbb
000002e0: 9fad 62bd e13c 9ebd 0910 57bc 698b f8bc
000002f0: b27b 773d 78e0 0abd 20a8 a73d 44c1 2e3d
00000300: 6e63 4cbd 685d be3b 39b3 283d 6e9c 8bbc
00000310: 2570 d0bc e95a 913d 7cc7 0f3c b940 853d
00000320: ae26 913d 71a7 273d 9145 453d 2309 743d
00000330: 1f64 b0bc b978 973d 27bf 19bd f463 52bd
00000340: b9c7 723d f9af 86bd 2cf3 10bd bce8 3ebd
00000350: 65ba 813b 738a 623d 1ef2 933b 425b 97bc
00000360: bf85 77bd 33bf 96bd 0527 62bd 0b6b efbc
00000370: 79cb 42bc 648f 9b3d 0f30 813d b351 5dbd
00000380: ee19 93bd 0bcb a1bc 72bb f33c 3eca 303d
00000390: 8096 453c 0cc6 1ebc eac8 ab3c ff84 4ebd
000003a0: 0bd1 223d 3419 d63c 2791 7fbd 3d96 f0bc
000003b0: cbf8 31bd c3b8 373d 8063 a9bc 8eb3 163c
000003c0: 07d8 623d 240b 27bd 05eb 8cbc 05e6 8dbd
000003d0: e3e4 8f3d e895 653d 5042 9abd 32ed a1bc
000003e0: 8a94 643d 13fd 8a3d 41ba 98bd c0da e13c
000003f0: 705b 8c3d aa54 593c e076 a93d bc3f 14bd
-0.075286165 0.0044104643 0.028713945 -0.061418083 -0.013208846 -0.025548253 -0.009401529 0.031573616
0.0020744838 -0.008606282 -0.040561516 -0.03663996 0.049079996 -0.060786046 -0.06253032 -0.09157969
0.07387018 0.028767683 -0.07127044 0.06551521 0.00241113 0.01629697 -0.03393623 -0.061861504
0.056499183 -0.042452738 -0.0025756375 -0.040052548 0.05699442 0.059413183 0.031872362 0.020678055
0.072067454 -0.03445348 0.075833365 0.029041622 0.048662905 0.07566739 0.06618795 0.0056771156
-0.08666742 -0.05406785 0.04889105 0.059226416 -0.07149928 -0.0008003338 -0.06538704 0.050177474
0.053297535 0.09019325 -0.047759887 -0.06870414 -0.043090824 0.025569875 -0.07326568 -0.04307223
0.057750896 -0.07114715 0.024236623 0.057716567 0.00726903 0.0267197 0.04648175 0.014295374
-0.030586507 0.0066156774 0.017755445 0.056139544 0.084285796 0.039417006 -0.0036455456 0.019395685
0.054576464 -0.028329194 -0.0040389057 -0.05170115 0.01721797 0.01026548 0.032882407 -0.031361427
-0.018677581 -0.030333925 -0.002616467 -0.033236012 0.02265202 0.036833003 -0.048419774 0.07359306
0.051070746 0.075423926 0.044970617 0.04358925 -0.08703096 -0.008777976 0.064957455 0.04148224
-0.03546899 -0.042637914 0.02736378 0.028423145 0.061450634 -0.05924352 -0.02754621 0.07701488
-0.081869885 0.063265316 0.064888485 -0.0825134 -0.026027415 0.051338427 0.016546806 -0.027869647
0.065858625 -0.04812678 0.028682115 0.07287316 0.013472153 -0.08298404 0.07637363 0.07922192
-0.009805167 -0.07506683 0.069165 -0.06292026 -0.051787533 0.015816594 0.060615465 -0.05200623
-0.033555143 -0.03365001 0.009813567 0.058138486 0.016227223 -0.062768735 0.049697343 0.029315416
-0.048890032 0.07030617 -0.056419987 0.06690661 -0.041819517 0.058979075 -0.002444946 -0.03855263
0.062468324 -0.014153058 0.01906846 -0.03346835 -0.032084577 -0.022561265 -0.0069393525 0.07593376
-0.044891763 -0.075807214 0.024447165 0.019049319 0.0050238175 0.05067755 -0.08037394 -0.06663012
-0.005845095 -0.053010166 0.0015521955 0.0018170809 0.06114652 -0.067530096 -0.07254408 -0.015815152
0.0038482756 0.032737516 0.037724815 -0.015728468 0.08194259 0.08360982 -0.052252427 0.033825383
-0.041157637 -0.05003324 0.017835598 -0.08177081 0.067226425 0.0122018 -0.07611989 -0.0077036973
-0.05534136 -0.077264555 -0.013126382 -0.030339913 0.0604207 -0.033905476 0.08186364 0.04266478
-0.04989951 0.0058094747 0.041186545 -0.017042365 -0.0254441 0.07097418 0.008775588 0.065064855
0.07087456 0.04093117 0.048162047 0.059579026 -0.021532116 0.07396073 -0.037535813 -0.051364854
0.0592725 -0.06576533 -0.035388157 -0.04660867 0.0039589875 0.055307817 0.0045149466 -0.018476132
-0.060430285 -0.07360687 -0.055212993 -0.029225847 -0.011889332 0.07595709 0.063079946 -0.054032993
-0.0718268 -0.019750139 0.029752467 0.043161623 0.012059808 -0.009690773 0.020969827 -0.050419804
0.03975014 0.026135065 -0.062394287 -0.029368514 -0.043450158 0.044853937 -0.020677328 0.009198083
0.0553818 -0.04078211 -0.01720191 -0.06928638 0.070260786 0.056051165 -0.07532179 -0.019766424
0.05580572 0.06786551 -0.074574 0.027570128 0.06853378 0.013264814 0.08274627 -0.036193594

rnn_module.gru.weight_hh_l0 f4 [384, 128]
00000000: b0e8 363b 995d 5b3d aa66 933d a152 883d
00000010: 5ec2 58bd a299 10bd eaf6 31bd 7be4 213d
00000020: 6e2d f6bb 5711 b13d 8919 7a3d 350f f6bc
00000030: 1118 88bb 008a 85bc 2cc7 1cbd b6f7 34bc
00000040: b78b 5c3d 8e6a f0bc dad0 d63c 1369 0cbd
00000050: 8d07 e6bb 4c95 163d f185 a73c 548a 5e3c
00000060: 7dc6 613d 37d8 23bd a3b8 84bd d2be 9abd
00000070: 0f10 a4bd ba7f ed3c 0afd 913c d4bb 6e3d
00000080: 5531 843d bfbb c23c 0f3d 853c 9c6a ffbc
00000090: 465e 8b3d 9bdf 993d fb20 8d3c afd8 7c3d
000000a0: 4ea5 68bd 9960 a5bc 43a8 b13b 26e8 853c
000000b0: bedf 9bbd 0322 09bd e328 8c3c 235c e63c
000000c0: c7c3 26bd 61cf 2a3c 6589 99bc 14d0 d0ba
000000d0: 39d7 dcbc a9b6 3dbc cc33 a2bd 1103 4f3d
000000e0: a5a9 88bd 7347 76bd c308 94bd 1bdd 93bd
000000f0: 7189 a5bd 0b63 2b3d 863a 88bd 584b d4bc
00000100: f447 233c 126e 1b3c 4117 e83c 902f a1bd
00000110: 517c 06bd a291 1cb8 e26a 66bd c56d 49bd
00000120: 7a6a 473d f9bd 93bd c9cb 79bc b46b 4d3d
00000130: c9f6 1c3d 077d dc3c aca0 a83d 5486 11bd
00000140: 7678 19bd aff3 45bd 782f 3d3d 0314 63bc
00000150: 9e7f ad3d b90c ca3c 809e 3a3d 7ae5 173d
00000160: 2900 05bd 62ef 85ba 4f31 25bd a493 0dbd
00000170: 6d4e 163d 4f82 42bd 1f1f 7e3d 3264 a73d
00000180: 0d56 a6bd 4696 923c 934f 993d 139a 84bd
00000190: f845 39bd b953 723d b6d0 fa3b fe8f 373d
000001a0: 823f 0a3b ebad 1a3d b1c4 6c3d d733 f9bc
000001b0: ceb9 933d 3534 88bd 8f47 2dbc be12 f3bc
000001c0: 6be2 6e3d 98fb a4bd 9c1c bebc e37f dbbc
000001d0: e99a 833c 7788 53bd e0b7 933d 3bf0 523c
000001e0: e98f fc3c 261e aa3b 654e 03bd 2666 453d
000001f0: 68ae 0a3d 5066 373d b518 dfbc d672 8d3d
00000200: 009e 3abc a980 aabd 7fd8 5bbd 4e29 2a3c
00000210: f076 7c3d 5083 db3c 1883 41bb de19 a13d
00000220: d669 8a3d ee71 b13c 7500 78bd d2da 93bc
00000230: 68e2 02ba c2fb 81bd 2971 05bd 3f3b 953d
00000240: e446 0dbc 2871 c2bc e2a7 97bd 1129 8b3c
00000250: cd3e 87bd 0fa3 8c3d 9b4b 54bd f50e a83d
00000260: 4667 f23c af53 703c cbc5 703c 7498 12bd
00000270: 16fc 36bd 88e4 88bd f052 8b3c 50f1 37bd
00000280: 7f13 933d 46e2 f5bc cca0 313d c504 bcbb
00000290: 5612 1a3d 0d1f 453c 4bc6 b23d c73c 863d
000002a0: 1b04 adbc 942b 923d 1067 593d 17cc 793d
000002b0: 443f 2fbc 1db9 9fbd 32bf aa3b c18b d2bc
000002c0: e2b9 d73c 4fda 0e3d c845 36bc d270 b9bc
000002d0: b573 1fbd 5cce 31bd 26df 993d 0eed 233d
000002e0: 3718 3f3d 02f9 9d3d 0dbc b0bc e976 373d
000002f0: 1211 83bd 611d 60bc 01e9 673d c22e 1c3c
00000300: 82e3 93bc 5577 3abd 9373 ddbc 2066 50bb
00000310: bdfc e6bb 04db a93d 37d0 87bd 8809 a9bd
00000320: 7ac1 2b3c 9061 773a 7490 a8bc 3375 4c3d
00000330: 7d59 55bd bda2 383d 7910 93bd aa19 003d
00000340: b803 803d d973 0abc 510d 13bb f553 9d3d
00000350: 77ef 763d 96d4 febc 8a14 8f3d 1e08 5c3c
00000360: 4e64 d23c 9037 a13d 63c9 9b3d e893 163d
00000370: 146e 9c3c 9e3f 91ba 32d2 74bc 2b8a 2f3d
00000380: 18d2 933d aaa5 aebd 3f5b 65bb 532f 993d
00000390: 8559 163d a4d1 1fbc 2e9b 463d d0a2 923d
000003a0: 39b8 563d c394 0ebd d924 033d 9c28 993d
000003b0: 433e d1bc e1aa 9e3d 096b 89bd 3796 6fbd
000003c0: 4ba7 51bd 6293 903d cb94 b13c 31d8 7dbd
000003d0: 4489 39bd d32b 6dbc 20eb 91bd 82fd ef3b
000003e0: ecd9 053d 7759 37bc 8eb2 4fbc ef86 983b
000003f0: 9fa7 9d3d 7057 1ebd 80de 9d3c 8735 81bd
0.0027909689 0.05355606 0.07197316 0.06656385 -0.052919738 -0.035302766 -0.043448366 0.039524537
-0.00751274 0.086458854 0.06105951 -0.030036548 -0.0041532596 -0.016301155 -0.038275883 -0.011045387
0.05384418 -0.029347684 0.026222635 -0.034279894 -0.007019943 0.036763474 0.02044961 0.013582785
0.055120934 -0.04000112 -0.06480529 -0.07555927 -0.080108754 0.028991569 0.017820854 0.058284596
0.06454722 0.023771165 0.016264467 -0.031178765 0.068050906 0.075133525 0.01722764 0.061730083
-0.05679827 -0.020187663 0.0054216697 0.016346049 -0.07611035 -0.0334797 0.01710934 0.028120106
-0.04071405 0.01042542 -0.018742273 -0.0015931153 -0.026958095 -0.011579194 -0.07920036 0.050540034
-0.06672982 -0.060126733 -0.07228234 -0.07219907 -0.080828555 0.0418425 -0.066517875 -0.025914833
0.009965885 0.009486692 0.0283314 -0.078704 -0.0328334 -3.732893e-05 -0.056254275 -0.04917695
0.04868553 -0.07213969 -0.01524634 0.05015154 0.03832129 0.026915086 0.08233771 -0.035528496
-0.037468396 -0.048328098 0.046187848 -0.013859752 0.08471607 0.02466427 0.045561314 0.03708408
-0.032470856 -0.0010218436 -0.040330227 -0.03456463 0.036695886 -0.047487553 0.0620414 0.081734076
-0.08121882 0.017893922 0.07485881 -0.064747 -0.045232743 0.059161875 0.007654275 0.044815056
0.0021094983 0.037763517 0.057804767 -0.030420227 0.07213174 -0.06650583 -0.010576143 -0.029672023
0.058321398 -0.080558 -0.023207001 -0.02679438 0.016065078 -0.051643815 0.07212806 0.012874658
0.03083034 0.0051915823 -0.032057185 0.04819312 0.033857733 0.044775307 -0.02723346 0.06906669
-0.011390209 -0.08325321 -0.053673264 0.010385824 0.061636865 0.026796013 -0.00295276 0.07866262
0.06758468 0.021660771 -0.06054731 -0.018048678 -0.00049928436 -0.06346847 -0.03257862 0.07286691
-0.008622859 -0.023735598 -0.07405068 0.016987355 -0.06603775 0.068670385 -0.051829915 0.08205978
0.02959026 0.014668389 0.014695595 -0.035789922 -0.044674 -0.06684214 0.017007321 -0.044907868
0.07181453 -0.030015122 0.04336624 -0.0057378733 0.037615143 0.012031329 0.08729228 0.06554561
-0.021120122 0.07137218 0.053076804 0.06098565 -0.010696236 -0.077989794 0.0052107805 -0.025701405
0.026333753 0.034876164 -0.011125036 -0.022636805 -0.038928706 -0.04340969 0.07513265 0.040020995
0.046653952 0.0771351 -0.021574045 0.044791136 -0.0639974 -0.0136788795 0.056618694 0.009532632
-0.01805282 -0.04552396 -0.02703265 -0.0031799152 -0.0070491717 0.08293727 -0.06631511 -0.08253771
0.01048314 0.000943684 -0.020576693 0.049916457 -0.052087296 0.045077074 -0.07180876 0.031274475
0.06250709 -0.008450472 -0.0022438357 0.07682029 0.060286965 -0.031107228 0.069863394 0.01342967
0.025682595 0.07871926 0.07606771 0.03676215 0.019095458 -0.0011081581 -0.014942693 0.042856377
0.072178066 -0.08527692 -0.0034997014 0.074797295 0.036706466 -0.009754572 0.048487835 0.0715996
0.052421782 -0.03480984 0.032017563 0.07478449 -0.025542384 0.07747436 -0.067098685 -0.058492865
-0.051184934 0.07059361 0.021677395 -0.061973754 -0.045296922 -0.014475781 -0.07124925 0.0073239217
0.03267853 -0.011190764 -0.012676848 0.004654757 0.07697987 -0.038657606 0.019271135 -0.06309038

rnn_module.gru.bias_ih_l0 f4 [384]
00000000: 1478 ba3d be52 11bc 34d6 c73d 9b05 183d
00000010: bb02 0a3d b90a 9abd 3559 283c 924b cb3c
00000020: 887e ab3d f227 9abd 3f80 933d af0f 9d3c
00000030: cd06 19bd 4e1b 11bd 7beb b1bc 477e 86bd
00000040: 7c02 3ebd 1d6d 593d cbf3 71bd e875 653a
00000050: 493f f3bc b55d 883d 63dc 33bd 9d01 09bc
00000060: 88bb d2bc a83a 0e3d ba2a 493d 0135 373c
00000070: afb8 a8bd bf4e 273d 140d 9b3d d695 27bd
00000080: 2629 85bd 4fb9 9d3d 79c6 663d 6b55 143d
00000090: b27e 883d 6b00 193d f82e 47bd ebe6 e4bc
000000a0: 8114 de3c 59c9 373d 051d 753d 6918 54bd
000000b0: ef7f 2f3d f203 29bd 71ca 46bd af76 aa3d
000000c0: 1a16 37bd e287 ad3c 01b4 be3c 8769 6abd
000000d0: eb65 893d b30b ac3c 87bf cabc 8b9f 603d
000000e0: 5681 513d aa68 90bd 20b8 dd3c ab51 49bd
000000f0: 7d6b 95bd 3ecd 0b3d 105c 41bd ae84 653d
00000100: e671 863d dc8e c43c 67d4 67bd f2e7 803d
00000110: d137 293d 9d6f 913d b49f 8fbc 6df6 9fbd
00000120: b78a bb3d 8cb3 493d a4c5 753d 6d3d 9a3d
00000130: d3df 4bbd 73ba cc3c 99f2 d1bc 4367 97bd
00000140: 3970 3dbd ab68 a93d 1cd4 a63d 51ac 32bd
00000150: 0ed9 5e3d 8705 323d 5953 2c3c b8e4 a9bc
00000160: a224 443d acff 6ebd 1225 0c3d 3081 8ebc
00000170: 8ffc 743d 0c53 34bd 0590 6bbd 6d6a 923d
00000180: ea5a 35bd fa1c 983d b6a1 64bd eca8 a73d
00000190: 5c16 93bd b436 ba3b 9856 d5b8 92a6 a6bd
000001a0: 77d2 203d 6070 b03c 8f14 e4ba 2a7c cb3c
000001b0: 7325 983d 4946 5fbc 6138 b8bc e6c7 8b3d
000001c0: 2bb0 b3bc 9020 81bc 8f79 b23c e3e3 55bd
000001d0: 0e10 dbbc f0d6 88bd a9c3 413d 4fd5 a03c
000001e0: 03ab a9bd 53fc be3d 4a1f 86bd 49f0 2bbc
000001f0: b21c fabc 1b41 7dbd 74a5 62bd 8bb5 4bbb
00000200: 9385 7739 309f a1bd a824 d33c 1b9c 11bd
00000210: ca23 9d3d 76b4 14bc e19b 573d 8a7e 053d
00000220: fd10 4cbd df8a fb3c ed43 f7bc 328b 913d
00000230: 191c 9fbc c4cc 41bd 629d 6d3d ebe0 35bc
00000240: dc67 b63d 6e96 33bc f7d0 8e3d c1ec 643d
00000250: 4cd3 a73d 0fe6 3dbb dd76 47bd f131 37bd
00000260: 72c2 a3bc 72aa 8dbd 824a 6f3d fa69 62bd
00000270: 82ab 173d a7ff 03bd 7b00 89bd 40f3 05bd
00000280: 9c87 1c3d fa55 903d 5adf 373c 5940 8b3d
00000290: 7775 9ebd 00bb e43b 7168 2aba 1dd0 693d
000002a0: 74f7 ae3c 3f98 a43d b2cf 4dbd 2797 ee3c
000002b0: 84a2 a2bd d8e9 ad3d 8be3 33bd ed5d 3a3d
000002c0: 8b58 863d 8350 1fbd e3dc 1bbc 516c f63c
000002d0: bdbb 43bd ce1e 663d 6b32 383c 865e 833d
000002e0: ac7c 6cbd 4d25 c83c 64ce 423d 7202 afbd
000002f0: ae2a d63c d9dd 30bd 7150 583d 7ea6 8abd
00000300: f233 3b3b e55a 32bd aeb7 2d3d d2d0 1c3c
00000310: d06b 9dbc 7f1b 703d 2948 db3c e6d9 1db8
00000320: 8099 6f3d bf35 81bd 84dc be3d ec07 7fbd
00000330: 8eef 123d 45e9 e3bc 2818 8dbd 3cf2 4c3d
00000340: 5f14 9ebd 5778 cabc ef49 9a3c 40e5 3f3d
00000350: 2b8c 4a3c 897c 91bd f3d8 203d d8ab 673d
00000360: 878a 5d3d 9ac0 af3d 9421 983d a8ed 463c
00000370: 58fc 84bd 948c 8fbd 7295 ab3d 3ec0 61bc
00000380: 1004 80bc dd1b a3bd f4fa ad3d 56a6 91bd
00000390: e539 56bd a292 823d 91e2 bdbd fec8 45bd
000003a0: 3745 bf3d 9eb9 f53c 34ac 5a3d 1174 35bd
000003b0: 68b4 8f3d efe8 9fbc 68a6 4cbc 24db 07bc
000003c0: 12dd 1a3d 0fba 433d 278b 75bd d755 513c
000003d0: 4400 993d 5abc f6bc fbc6 67bd fcc2 a1bb
000003e0: 7c88 acbd a3ea bf3d 27f4 fa3c 41e3 ad3c
000003f0: a687 6d3d 2e09 5abd e7ae ba3c 6faf 8dbd
0.09104934 -0.008869825 0.09757653 0.03711472 0.03369401 -0.075215764 0.010275175 0.024816308
0.08373743 -0.0752715 0.072021954 0.019172518 -0.03736 -0.03542643 -0.021718731 -0.06567054
-0.046389088 0.053082574 -0.05907039 0.0008753226 -0.029693263 0.06658498 -0.04391135 -0.008362201
-0.025724187 0.034723908 0.049113013 0.011182071 -0.082383506 0.040846583 0.07570854 -0.04091438
-0.06501989 0.077013604 0.056341622 0.036214273 0.0666479 0.037353914 -0.048628777 -0.027942142
0.027109386 0.044869754 0.05984213 -0.05178109 0.042846616 -0.04126353 -0.048532907 0.08323418
-0.044698812 0.021182958 0.023279192 -0.057229545 0.067088924 0.021001672 -0.02474953 0.054839652
0.051148735 -0.07051213 0.027065337 -0.04915015 -0.072958924 0.03413128 -0.04720694 0.056034736
0.06564693 0.023993902 -0.056599047 0.0629424 0.041312996 0.07101367 -0.017532207 -0.07810674
0.09157317 0.049243495 0.060002938 0.07531247 -0.049774002 0.02499125 -0.025628375 -0.073927425
-0.046249602 0.08271917 0.081459254 -0.043621365 0.05440622 0.043462303 0.0105179185 -0.020738944
0.0478865 -0.058349296 0.03421504 -0.017395586 0.05981117 -0.044024512 -0.057510395 0.07149205
-0.044276156 0.07427402 -0.055818282 0.08186516 -0.07181999 0.0056827907 -0.00010172761 -0.081372395
0.039263215 0.02153796 -0.0017401146 0.02483948 0.07429018 -0.013627597 -0.022487821 0.06825237
-0.02193459 -0.015762597 0.02178648 -0.052219283 -0.026741054 -0.06681621 0.047305737 0.019632963
-0.08284571 0.09325471 -0.06548937 -0.0104943 -0.030531261 -0.061829668 -0.05533357 -0.003108355
0.00023605516 -0.07891691 0.025774315 -0.035549264 0.07672842 -0.009076228 0.052638892 0.03259138
-0.04982089 0.030705867 -0.030183757 0.071066275 -0.019422578 -0.04731442 0.05801142 -0.011100988
0.08906528 -0.010961158 0.06973451 0.05588985 0.081945986 -0.0028976237 -0.04869734 -0.044725362
-0.01999018 -0.069172755 0.058420666 -0.05527685 0.037028797 -0.03222623 -0.06689545 -0.032702684
0.038215265 0.07047649 0.011222685 0.06799383 -0.077372484 0.0069803 -0.00065005483 0.057083238
0.02135823 0.08036851 -0.0502469 0.02912481 -0.07941154 0.08491868 -0.043918174 0.04549973
0.06559857 -0.03889514 -0.009513113 0.030080946 -0.047786463 0.05618172 0.011242489 0.06414513
-0.057736084 0.024431849 0.04756011 -0.08545388 0.026143398 -0.04318032 0.05281109 -0.06770037
0.0028564897 -0.043543715 0.0424115 0.009571271 -0.019216448 0.058619972 0.026767807 -3.763465e-05
0.058496 -0.063090794 0.09319404 -0.062263414 0.03587299 -0.027821193 -0.06889373 0.0500357
-0.07718729 -0.024715586 0.018834082 0.04684949 0.01236252 -0.07103831 0.0392694 0.056560367
0.054087188 0.08581658 0.074282795 0.012141623 -0.06493443 -0.07009235 0.08378114 -0.013778744
-0.015626937 -0.07964299 0.08495131 -0.07111804 -0.052301306 0.06375624 -0.0927173 -0.048287384
0.093393736 0.029995736 0.053386882 -0.044300143 0.07016832 -0.019520251 -0.012490846 -0.008291993
0.037808485 0.04778486 -0.05994716 0.0127768135 0.07470754 -0.03011911 -0.056586247 -0.004936574
-0.0842447 0.09370925 0.030633999 0.021226527 0.057990693 -0.05323141 0.022788478 -0.06918227

rnn_module.gru.bias_hh_l0 f4 [384]
00000000: 97a2 a6bb 1fbc 71bd 6c09 3e3d 9edd 88bd
00000010: 1caf ab3d bc6d 2b3d a66a db38 83dc a4bb
00000020: 3f82 903d aac4 2e3d 31d0 a3bd 2058 26bd
00000030: 5247 c4bb 3aab 4e3d c3d4 053d 8b04 343d
00000040: e46c 61bd 3606 cfbb 0b72 9abc 7031 afbb
00000050: 4331 59bc a549 27bc 6b07 fb3c 1f64 9dbd
00000060: 11fd 2cbd e69b 5e3d 61e2 f1bc 00cb 83bd
00000070: aa87 883d a499 fa3c 925a c43c d11d 873d
00000080: ae83 ebbc 4837 dc3c 3ea7 a53d 78d9 8ebd
00000090: b85f 0bbd d5a0 79bd a499 823d 0bac 64bd
000000a0: 3e4c 463d 8323 31bc 1b2f 9fbc 4620 4bbd
000000b0: 1f6e b43d 8070 b73d 0a4a 06bd 52f5 793d
000000c0: 0574 60bd 6897 2e3d f78b 2fbd 0bab 003d
000000d0: 33c9 2b3d 0d69 0b3d 3e49 11bd dfb1 46bd
000000e0: 5b89 84bd 86d4 033d 3fdc 1fbb 5d00 59bd
000000f0: a674 793d ec68 823d 7335 1cbd ef74 253d
00000100: 08f2 623b 82ea 4cbd 50e5 8a3d c1e8 813d
00000110: ab47 063c 09e3 a2bd 3863 a5bc 3b83 853d
00000120: 6f51 ac3c dd14 093d dccb 87bb 0789 b6b6
00000130: 20ac 203d f96d 7a3d b917 a7bc 7af1 9f3c
00000140: 377f 19bb 2d18 9b3d ca91 03bd 517a 0abd
00000150: 9ea9 723c febf 183c 4997 a8bd 548b a63d
00000160: cac3 85bd f151 4abd 34b9 9ebd 8363 e43c
00000170: de01 4ebd fd4e abbd 4dee b43c c698 0c3d
00000180: 7c42 0c3d 3495 14bc 5490 573c 6d77 c23c
00000190: 5909 9b3d 65ba adbd 3a3f b03c 25f7 7a3c
000001a0: 35c7 8d3d 3b49 19bd 61ae 27bd c722 8f3b
000001b0: a7f7 30bd bfae a13c 2206 833d 5626 fdbc
000001c0: d248 f6bc 91fe 773d 37cc 3ebd c65b 3cbc
000001d0: 7003 31bd 625b 0a3d ff25 4bbd 08b1 1d3d
000001e0: fa0c fa3c 2ec3 b53d aff8 78bd 2f68 97bd
000001f0: 3fd1 d63c 3df6 9c3d cda9 9f3d aa81 4c3d
00000200: b3aa 903c 4588 8dbc 29f6 713d 74b8 6bbd
00000210: 6eea 713d c7dc bebd 8357 9b3d ba46 933d
00000220: 1d91 7f3d ccff 6fbd a417 90bd cccf 46bd
00000230: 1322 b5bc 22a5 10bd 97c6 133d 5ce2 cbbc
00000240: d9e9 2c3b 261a 6cbd 6be0 1f3d d85c 113d
00000250: 93f2 64bd 10c0 833d 3b2d 24bd 286b 283d
00000260: 3d3b d03b 9bf8 62bd 4fb0 6fbd 5453 7cbd
00000270: c005 a03d 598e 31bc 7172 873c 5580 803c
00000280: d98c a5bd 6a97 853c 4c2c 9abd e56d babc
00000290: 792a 4e3c 9aa5 acbc b007 fabc f850 223d
000002a0: ec8a 403d fbe2 fabc 73cb 823d 7cd6 c7bd
000002b0: dfa1 6e3d e24e d9bb b392 94bd 6ebd 78bd
000002c0: 112a 803c 3b96 57bd b229 853d b6d7 563d
000002d0: 79eb 9eba faee a9bd 8555 f33c dcab 423d
000002e0: 6c42 5fbc 7bda 3cbc dee7 09bd 1735 a4bd
000002f0: be10 dd3b 4f83 a33d 2172 a1bd efd5 91bc
00000300: 6ffe 31bd 927d f13c 4a5a 8f3c 8b2b bcbc
00000310: f3df 7c3c 8aa1 35bd 3790 483c 49d7 373d
00000320: 029e b1bc 1cec a73c 52f1 f9bc 6b83 f13c
00000330: 5277 85bd 5016 c13d 3d57 173d deee f4bc
00000340: 4540 9b3d 5475 31bc 9d66 f23c a175 2e3d
00000350: f5b5 383d aaa3 363d 8ffc 99bd 7a2e c1bb
00000360: dee0 1b3c 7e0c 04bd 31f9 98bd d3ca c9bc
00000370: 393e b93d af43 69bd 3d29 43bd 73c7 24bd
00000380: c6e4 85bd f2cc 84bd 8eec 813d 4aad a63b
00000390: bc50 323d a3af 95bc 67b5 a3bd 969e 243d
000003a0: d94d 953d eb60 0a3d 36c5 7cbd 7264 763d
000003b0: bbf7 d43c c22c 12bd cf4b 793d 87a1 763d
000003c0: dbbe 8a3d 247a 06bd a1b0 0bbd 59ac 8b3d
000003d0: 173b 6dbb f208 3bbd 685d 68bd c0da 1bbc
000003e0: 41c9 79bd b485 d9bc 85e0 5cbd 0a1f a6bc
000003f0: 1dfc 373d 9f47 53bc f730 5fbd d8cf a63d
-0.0050853 -0.059017297 0.046395704 -0.06682895 0.08383009 0.041852698 0.000104625986 -0.00503117
0.070560925 0.042668022 -0.07998694 -0.040611386 -0.0059899474 0.050456263 0.03267361 0.043949645
-0.055035487 -0.006317879 -0.018853208 -0.0053464696 -0.013256374 -0.010210429 0.030643186 -0.07685112
-0.04223353 0.054347895 -0.029526891 -0.064352036 0.06666501 0.03059084 0.023968969 0.06597484
-0.028749313 0.026881829 0.080885395 -0.069750726 -0.03402683 -0.060944397 0.06376961 -0.055828135
0.048412554 -0.010811689 -0.019431641 -0.049591325 0.088100664 0.089570045 -0.032785453 0.06102497
-0.054798145 0.04262486 -0.04285809 0.03141312 0.041939925 0.03403573 -0.03547024 -0.048509475
-0.06471511 0.0321851 -0.0024392752 -0.052978862 0.06090226 0.063676685 -0.03813691 0.04039472
0.0034629125 -0.05002833 0.06782019 0.063432224 0.008195798 -0.0795346 -0.020188913 0.06519171
0.021034924 0.033467162 -0.004144175 -5.4399748e-06 0.03922665 0.061140034 -0.020397054 0.019524325
-0.0023421773 0.075729705 -0.032121457 -0.033808056 0.014810948 0.009323118 -0.0823198 0.081320435
-0.065314844 -0.04939455 -0.077501684 0.027879482 -0.05029475 -0.08364675 0.022086287 0.034325384
0.034243092 -0.009068776 0.013156969 0.023738587 0.07570142 -0.084828176 0.021514524 0.015317713
0.06922761 -0.037423354 -0.040937785 0.0043681595 -0.04320493 0.019736646 0.06397654 -0.030902069
-0.03006402 0.060545508 -0.046581473 -0.01149649 -0.04321617 0.033778556 -0.049596783 0.03849891
0.030523766 0.08875118 -0.06078404 -0.07392918 0.026222823 0.07664154 0.07796059 0.049928345
0.01765952 -0.017276892 0.059072647 -0.057548955 0.05906146 -0.09319454 0.07585051 0.071912244
0.06239425 -0.058593556 -0.07035759 -0.048538014 -0.022110974 -0.035313733 0.036078062 -0.02488821
0.0026384501 -0.057642125 0.03903238 0.035488933 -0.0558954 0.064331174 -0.040082198 0.041117817
0.006354718 -0.05541287 -0.05851775 -0.061602905 0.07813597 -0.010837161 0.016534062 0.015686193
-0.08083505 0.016307551 -0.0752798 -0.02275748 0.012583368 -0.021075059 -0.030521244 0.039628
0.047007486 -0.03062581 0.06386461 -0.097577065 0.05825984 -0.006631718 -0.07254543 -0.06072753
0.015645059 -0.052633505 0.065020934 0.05245181 -0.001212462 -0.08297534 0.029703865 0.04752718
-0.013626676 -0.011526699 -0.03366839 -0.080179386 0.0067463806 0.079840295 -0.078830965 -0.017802207
-0.043455537 0.029478822 0.017499108 -0.022969982 0.015434253 -0.04434351 0.012241415 0.044883046
-0.02168179 0.020498328 -0.030510578 0.02948161 -0.06516899 0.09428084 0.03694843 -0.029899057
0.07580618 -0.010831196 0.029589945 0.04259265 0.045095403 0.044589676 -0.07518875 -0.005895433
0.009514062 -0.032238476 -0.074694045 -0.024632847 0.09045071 -0.056949314 -0.04764675 -0.040229272
-0.06537776 -0.06484403 0.06343947 0.0050865756 0.043534026 -0.018272227 -0.07993584 0.0401903
0.07290239 0.033783834 -0.061711513 0.060154386 0.025997033 -0.035687216 0.060863312 0.06021264
0.06774684 -0.032831326 -0.034103993 0.06819982 -0.003619855 -0.045662828 -0.056729704 -0.009512603
-0.060982946 -0.026553012 -0.053925056 -0.020278472 0.04491817 -0.012895494 -0.054490056 0.08145112

o_mat.weight f4 [1, 128]
00000000: 032e 283c 4702 9f3c 4069 703d 519a 76bc
00000010: f625 f73c f1bb 8c3d 81a6 6f3d 9cc6 4b3d
00000020: 56aa 393c dc4f 93bd f90d 31bd 2302 243c
00000030: 9ed9 0e3d 876a 02bd 22fe 02bd d362 313d
00000040: c4bb 783b c380 51bd 7031 e83c d8bb 29bd
00000050: 3ead 3dbd d62d eb3c c2ae 4fbd f902 2fbd
00000060: 6ece febc 5d13 a9bd b749 953d c9bf 3abd
00000070: 1c0d 3dbd 62f4 18bd 8c4c d3bb 85fc bfbb
00000080: 4201 cc3c d2e4 16bc 651e 9fbd 447d 013c
00000090: 4b4a 5cbd 6f63 90bb b568 ad3c 092f 60bc
000000a0: 6124 85bd e881 a83d 6a5e 443d 73a2 8a3d
000000b0: 9eff 843d 2196 56bd 63a0 9cbd 0317 76bd
000000c0: e460 833d f13b 8abd 7e0c 0bbd 7de7 0abd
000000d0: 91c8 a63d df5e 75bd 329e a93d 5a5f f83a
000000e0: 93e7 92bd 8f6b ecbc 1c77 823c 5036 83bd
000000f0: 32b7 aebd a835 50bc 773c 923d 2587 9d3d
00000100: b78d 283d 532a c33c fd20 4e3d e024 653d
00000110: b996 423d ada2 003d a615 48bd 0a35 ac3d
00000120: ad7d 093d 06f1 d53a c6d4 ab3d 5579 973d
00000130: d10c 6f3d e2a9 b2bd 3af4 52bd 35a8 463d
00000140: 8cad a03b f5b6 b8bc 1f51 69bd 9294 ab3d
00000150: c5e3 49bc 0db5 a13d 5602 a83d 9bec 913c
00000160: e3e6 bc3d 8803 acbd 32cc 243d f5fe 1fbc
00000170: 410c a3bd 37ce 0d3d 1e5c 0d3d 298b 2ebd
00000180: 40d8 863d 1800 b63c 8006 abbc 3b7c c03b
00000190: 4155 a83d 2ccc 713d af7c 33bd 4cd9 883d
000001a0: 7bc1 5f3d b70c 04bd 9ee2 323c 8c76 a0bc
000001b0: 3934 923d c53b e83b bfe7 3abd 82ca 263b
000001c0: f1b8 99bd 2892 3bbd ac8a 1d3c e3da c9bb
000001d0: ff57 8f3c ef82 6ebd 6ffe 413d 4ff6 a5bd
000001e0: 7982 7e3c d3fd 94bd ebaa 053c 5cd6 12bd
000001f0: 17b1 0fbd 4d19 79bd 18f4 99bd 83be 433d
0.010264876 0.019410266 0.058694124 -0.01505144 0.030169468 0.068717845 0.0585084 0.049749956
0.011332115 -0.07192966 -0.043226216 0.010010275 0.034875505 -0.031839874 -0.03198064 0.043307137
0.0037953714 -0.051148187 0.028343886 -0.041438907 -0.046307795 0.02870838 -0.05070377 -0.042727444
-0.031104293 -0.082556464 0.072894506 -0.045593057 -0.04615508 -0.037342437 -0.006448334 -0.00585896
0.024902944 -0.009209828 -0.07769469 0.007903401 -0.05378179 -0.0044063847 0.021168092 -0.013683089
-0.06501079 0.08227903 0.047941603 0.06769266 0.064940676 -0.052389268 -0.07647779 -0.06008054
0.06414965 -0.06749714 -0.03394746 -0.03391217 0.08143724 -0.05990493 0.082821265 0.0018949315
-0.071730755 -0.028859882 0.015925936 -0.06406844 -0.085310355 -0.012708105 0.07140439 0.076917924
0.041150775 0.023823893 0.05032443 0.05594337 0.04750702 0.03140514 -0.04884877 0.08408554
0.03356712 0.0016322441 0.08390193 0.07396189 0.058361832 -0.08723809 -0.051502444 0.04850026
0.004903501 -0.022548178 -0.05696213 0.08377947 -0.012322371 0.07895861 0.082035705 0.017813018
0.09223726 -0.08399111 0.0402338 -0.009765376 -0.079613216 0.03462049 0.034511678 -0.042613182
0.06584215 0.022216842 -0.020877123 0.0058741844 0.08219386 0.059032604 -0.04382008 0.06682071
0.054627877 -0.03223869 0.010918288 -0.019587778 0.07138867 0.007087203 -0.045631167 0.0025450294
-0.07505978 -0.045793682 0.0096155815 -0.0061601265 0.017498014 -0.058230337 0.047361787 -0.0810362
0.015534037 -0.07274976 0.008158426 -0.03584896 -0.035080995 -0.060815144 -0.0751726 0.047789108
